models/lodopab/ScaleL2O_lodopab.pth (torch, 243886 bytes, 24 tensors)

conv1.weight f4 [16, 16, 5, 5]
0.029784517 0.05944934 -0.0008097064 -0.010257766 -0.012298186 -0.039340384 0.0079133045 0.0005960997
0.0024049003 -0.06010119 0.0030357218 0.0033835736 7.981049e-05 -0.0047022346 0.022315886 -0.007601934
0.008833543 -0.01934856 0.005420843 0.01147823 -0.0054853437 -0.022054482 -0.013714934 0.059129465
-0.05166984 0.007983903 -0.014068757 -0.057187323 -0.00653209 -0.044365734 0.02437736 -0.0957703
-0.01593172 -0.017379109 -0.013026199 -0.012636365 -0.011299579 0.06300648 0.034237966 -0.011771296
0.004811067 -0.0058177942 0.04323957 0.028038692 0.010274886 -0.008067455 0.028636886 -0.0079515595
0.027716717 -0.024198327 -0.014952006 -0.023056982 -0.071025655 0.046126608 0.015554195 0.0617713
-0.017569138 -0.004257545 0.06980299 -0.01447138 -0.0032301864 -0.04295928 0.046996024 0.0073287324
0.015795631 -0.019596722 0.04943305 -0.0063038743 -0.04851222 -0.024129499 0.03560868 0.019786417
0.042269256 -0.04439544 -0.039537434 -0.077644385 -0.0321918 0.028971463 0.023261694 0.0052478653
0.00020748469 0.052847322 0.09353801 -0.008040878 0.021021394 0.0329342 0.1445253 -0.017374216
-0.010332942 0.022018557 0.03521233 -0.015711952 -0.01840739 0.04195972 -0.012662935 -0.024556808
0.055947326 -0.045674335 -0.005010573 -0.07143442 0.042429566 -0.011177721 0.14373188 0.02692643
0.027286688 -0.043086376 -0.10642585 -0.016327444 -0.07807643 -0.038574252 0.03793448 -0.009321
0.012615345 -0.10492561 -0.044711538 -0.032978985 0.06788311 -0.029231897 -0.042224646 -0.046428505
-0.018470174 -0.022527535 -0.0079555195 -0.034085635 -0.002286527 -0.023662971 -0.0032557494 -0.045274366
0.026024142 -0.012704958 0.053851318 0.0050799097 -0.056527603 0.05508511 -0.0050506913 -0.043920934
-0.054813754 -0.007069977 0.0391649 0.019457988 0.020782221 -0.018684262 0.04634496 -0.05795645
-0.029794578 0.030994726 0.0345353 0.016784562 0.026749743 -0.028764723 -0.012005754 -0.04885025
-0.0115773445 -0.029076593 0.05494443 -0.07002817 0.012520306 0.04259454 0.047360547 -0.028310532
0.05464934 0.028257992 0.031962074 -0.046019375 0.007752068 0.005136437 -0.013661855 0.031553015
0.0031351647 -0.025306068 -0.027603712 -0.0065190303 0.03183861 -0.0086472025 -0.035185836 0.013911626
-0.14477673 0.022216085 0.09288563 -0.030883968 -0.09339287 -0.044577677 -0.10477412 -0.035061568
0.03556369 -6.504868e-05 0.00060290424 0.013690923 -0.006037298 0.0078026303 -0.044906095 0.0072641703
0.09348919 0.023905598 -0.03111504 -0.0058794455 -0.005350573 -0.010749009 0.0471541 0.026787367
-0.07121952 -0.029874478 0.054874547 -0.034376517 -0.0039900504 -0.065162614 -0.0075795827 -0.097294085
-0.038689926 -0.037881806 0.080682285 0.08541913 -0.030013502 0.0124523565 0.030000899 0.057684273
0.00040884397 -0.04933979 0.04643327 -0.013105295 -0.028817713 0.03543169 -0.011027284 -0.01002971
-0.029693723 0.06988407 0.046317276 0.082876556 -0.01182815 -0.046231072 -0.00157832 0.045040395
0.062058706 0.031147562 0.02980494 -0.0065734154 -0.034178138 -0.055367436 -0.08657181 -0.050487984
0.005483065 -0.027129082 -0.007508861 -0.025633162 -0.00051476725 -0.043299273 -0.036128893 0.0115426
-0.0123302275 0.042287692 -0.019267056 -0.04150006 -0.03968747 -0.030161321 -0.012465957 -0.03929948
00000000: a9fe f33c 2781 733d 7a42 54ba 3010 28bc
00000010: 557e 49bc 6223 21bd cea6 013c 9343 1c3a
00000020: 889b 1d3b aa2c 76bd f6f2 463b f2be 5d3b
00000030: ee5f a738 3415 9abb cecf b63c a519 f9bb
00000040: 91ba 103c df80 9ebc 54a1 b13b 300f 3c3c
00000050: 66be b3bb 9aab b4bc 9ab4 60bc bd31 723d
00000060: c1a3 53bd ebce 023c a580 66bc 413d 6abd
00000070: 240b d6bb d8b8 35bd 07b3 c73c 3823 c4bd
00000080: 3d83 82bc a25e 8ebc d76b 55bc c208 4fbc
00000090: df21 39bc 8b09 813d 1c3d 0c3d 65dc 40bc
000000a0: 28a6 9d3b 32a3 bebb fa1b 313d 66b1 e53c
000000b0: ff57 283c 5c2d 04bc e797 ea3c 4247 02bc
000000c0: 2b0e e33c 923b c6bc 42f9 74bc ffe1 bcbc
000000d0: e675 91bd 41ef 3c3d 06d7 7e3c e703 7d3d
000000e0: 27ed 8fbc e082 8bbb dff4 8e3d 5e19 6dbc
000000f0: 89b1 53bb 12f6 2fbd e77e 403d dd25 f03b
00000100: d765 813c 4e89 a0bc 4f7a 4a3d bb90 cebb
00000110: c0b4 46bd 3aab c5bc 68da 113d 2017 a23c
00000120: 8722 2d3d fed7 35bd 01f2 21bd 0504 9fbd
00000130: 8ddb 03bd 9055 ed3c 4f8f be3c 49f6 ab3b
00000140: 3f90 5939 6f76 583d db90 bf3d e3bd 03bc
00000150: 0f35 ac3c 03e6 063d 71fe 133e 5f54 8ebc
00000160: 804b 29bc 4360 b43c ce3a 103d 5ab6 80bc
00000170: 18cb 96bc f5dd 2b3d 3378 4fbc 5c2b c9bc
00000180: 0629 653d 0315 3bbd bc2f a4bb 364c 92bd
00000190: a0ca 2d3d c322 37bc 732e 133e d194 dc3c
000001a0: 5588 df3c 577b 30bd ccf5 d9bd 22c1 85bc
000001b0: 89e6 9fbd 0900 1ebd 2f61 1b3d 1cb7 18bc
000001c0: 98b0 4e3c 3de3 d6bd 7223 37bd f914 07bd
000001d0: 4d06 8b3d bb77 efbc c0f3 2cbd d12b 3ebd
000001e0: c34e 97bc aa8b b8bc de57 02bc 619d 0bbd
000001f0: 8fd9 15bb d9d8 c1bc 695e 55bb 9d71 39bd
00000200: 9530 d53c 7528 50bc 3393 5c3d 5f75 a63b
00000210: 7d89 67bd eda0 613d 4580 a5bb 70e6 33bd
00000220: 6384 60bd 44ab e7bb 606b 203d 5c66 9f3c
00000230: 7a3f aa3c bd0f 99bc 36d4 3d3d be63 6dbd
00000240: c213 f4bc a7e8 fd3c e374 0d3d c77f 893c
00000250: 4722 db3c ffa3 ebbc c8b3 44bc 3317 48bd
00000260: e7ae 3dbc 0932 eebc 690d 613d ee6a 8fbd
00000270: f821 4d3c 9d77 2e3d 22fd 413d 7deb e7bc
00000280: fdd7 5f3d 4e7d e73c aaea 023d d07e 3cbd
00000290: 0f05 fe3b 8e4f a83b f9d5 5fbc bc3d 013d
000002a0: 5677 4d3b ac4e cfbc 2e21 e2bc 979d d5bb
000002b0: 3469 023d ffac 0dbc 061f 10bd 97ed 633c
000002c0: 5a40 14be 82fe b53c d23a be3d 6000 fdbc
000002d0: c344 bfbd 1597 36bd d093 d6bd b89c 0fbd
000002e0: 3bab 113d bf6a 88b8 380c 1e3a e54f 603c
000002f0: 87d4 c5bb 35ad ff3b 74ef 37bd 4708 ee3b
00000300: 4377 bf3d acd5 c33c f8e4 febc 5da8 c0bb
00000310: dc53 afbb 9d1c 30bc a824 413d 2e71 db3c
00000320: 8adb 91bd 52bb f4bc 22c4 603d 64ce 0cbd
00000330: f8be 82bb fa73 85bd 265e f8bb 1f42 c7bd
00000340: 5479 1ebd f429 1bbd c13c a53d 3af0 ae3d
00000350: e0de f5bc f804 4c3c 72c4 f53c 5846 6c3d
00000360: 1c5a d639 8518 4abd d030 3e3d 97b7 56bc
00000370: 2013 ecbc d220 113d c8ab 34bc a753 24bc
00000380: 4040 f3bc 611f 8f3d 2fb7 3d3d 2fbb a93d
00000390: dbca 41bc cb5c 3dbd a2df ceba 477c 383d
000003a0: 4531 7e3d 2c29 ff3c 7d29 f43c ce65 d7bb
000003b0: 60fe 0bbd f7c8 62bd 904c b1bd 7dcc 4ebd
000003c0: 48ab b33b cf3d debc e40c f6bb a3fc d1bc
000003d0: 72f1 06ba 945a 31bd e4fb 13bd 2c1d 3d3c
000003e0: b904 4abc dc35 2d3d f2d5 9dbc f8fb 29bd
000003f0: 548f 22bd e014 f7bc 033e 4cbc 7ef8 20bd

conv1.bias f4 [16]
0.018895587 -0.032252464 0.03897134 0.014376612 0.004215702 0.009766089 0.0064319046 -0.018678417
0.011046091 -0.010726389 -0.01823655 -0.024167173 -0.0035039908 -0.026942711 -0.010227811 -0.040464416
00000000: ebca 9a3c 291b 04bd 69a0 1f3d e28b 6b3c
00000010: df23 8a3b f201 203c bac2 d23b 7b03 99bc
00000020: aafa 343c bcbd 2fbc d164 95bc 3cfa c5bc
00000030: 36a3 65bb f6b6 dcbc 8c92 27bc 04be 25bd

conv2.weight f4 [16, 16, 5, 5]
0.027105736 0.016643481 -0.022637375 0.011841601 -0.0068021524 0.014208417 0.02551937 -0.03910889
-0.024710204 -0.00048504362 0.016244104 -0.015174344 0.009018469 -0.053211693 -0.04588504 -0.0037642736
-0.041757304 -0.014999037 -0.009325224 0.061532717 -0.038242042 -0.023584852 -0.034213617 -0.028334392
0.029894762 0.027136352 -0.033705503 -0.017912865 -0.023548333 -0.03257393 0.0602032 -0.05164218
-0.0141193895 -0.0027822407 -0.028964417 0.01343883 0.01997711 -0.039437834 0.012241894 0.0013030743
0.037664402 -0.063045815 0.045346484 -0.022397278 0.026797727 -0.025738716 -0.00905629 -0.026123898
0.019359624 0.036225736 0.029908663 -0.017283466 -0.057504576 0.0090796845 0.03250121 0.05071867
-0.033630427 0.012035897 0.021422446 -0.016274964 0.033986714 -0.0064345584 0.006746287 -0.059992075
2.940498e-05 0.047026027 0.03817064 -0.029326377 -0.023637244 0.007876684 -0.024043906 0.001331958
0.0154841915 0.012491124 0.012016961 -0.01007269 -0.017029718 0.012773773 -0.031739518 0.03101978
0.023645628 -0.044687822 0.062411115 0.114849925 0.014108434 0.006440184 -0.021742687 -0.010121911
0.055181008 0.08334673 -0.06689908 0.0060715233 -0.028658582 0.046502933 -0.010258888 -0.03769773
-0.061216805 0.011965623 0.03808052 -0.0336519 -0.067712605 0.0026755722 0.062149446 0.062453628
-0.027485983 -0.002991992 0.011783825 0.016996095 -0.0057119904 0.009429659 0.0012055563 -0.0016020627
0.038075473 0.0581671 0.07260169 -0.023086587 -0.014122331 -0.044284787 0.0185546 0.022047557
0.016520195 0.016104126 -0.07676369 0.011932297 2.3588134e-05 -0.0023559318 -0.010316799 -0.041523077
-0.025102092 0.0068984088 -0.041336097 0.021219702 -0.054941993 -0.040563904 -0.021610904 0.025419468
0.030974356 -0.07029047 -0.026236951 0.03003549 -0.013873882 -0.044122815 0.018221946 -0.02284775
0.03067032 0.033026706 0.0528878 -0.04070215 0.03680862 0.03229915 0.038921766 0.044899605
-0.013324072 -0.012203852 -0.000450651 0.022958767 -0.03600053 0.03792432 0.018482447 0.038858432
0.01247127 0.039022565 -0.03862289 -0.029905252 -0.07183667 0.021191193 0.012258581 0.014818818
0.02407904 0.016447537 0.01645708 -0.026083155 0.03760067 -0.020716472 -0.012204575 -0.015655601
0.015048183 -0.055273287 0.018795572 -0.084047884 -0.039806735 -0.022669692 0.017511522 -0.025396584
0.09490238 -0.026230762 -0.0581652 -0.033359475 -0.059183218 0.05522943 -0.023360133 -0.0048715766
-0.058050454 0.049784876 0.036756016 0.023105903 0.022698838 0.009298258 0.055520244 0.090380095
0.015726874 0.029670678 0.03793229 -0.0007616867 -0.044702623 0.08524562 0.011846648 -0.0025639685
0.019649379 0.07515704 -0.02290581 -0.012551234 -0.0044811666 -0.043735832 -0.044553883 0.02457194
0.052502856 0.039271012 -0.06755207 -0.0466799 0.03292273 0.00497445 -0.0032237703 -0.018986702
-0.07971908 0.002999053 -0.055364132 0.030805495 -0.029981865 -0.043417845 0.018213809 -0.016775763
-0.017657045 -0.014620712 -0.0027788223 0.06885152 0.02782967 0.009493684 0.011276943 -0.014901838
0.046702836 0.035543114 0.028256971 -0.038799558 0.027365038 0.013820411 -0.048696242 0.02918793
-0.0056648515 -0.045834593 0.014744185 0.029394682 0.064957775 -0.025518894 0.049568884 0.0069584497
00000000: d90c de3c e957 883c 0472 b9bc 4603 423c
00000010: 97e4 debb 6cca 683c ff0d d13c a530 20bd
00000020: 0e6d cabc 744d feb9 5b12 853c d09d 78bc
00000030: 33c2 133c 81f4 59bd f4f1 3bbd 08b2 76bb
00000040: b509 2bbd 85be 75bc d3c8 18bc bb09 7c3d
00000050: b0a3 1cbd 0535 c1bc 9423 0cbd 871d e8bc
00000060: dce5 f43c 0e4d de3c c80e 0abd 00be 92bc
00000070: 6fe8 c0bc 3e6c 05bd a197 763d c086 53bd
00000080: 0355 67bc 4156 36bb c946 edbc 8a2e 5c3c
00000090: 09a7 a33c 9189 21bd 3a92 483c ebcb aa3a
000000a0: fd45 1a3d 2a1e 81bd 3cbd 393d 7f7a b7bc
000000b0: e886 db3c 00da d2bc d560 14bc c901 d6bc
000000c0: 1398 9e3c 7061 143d 0303 f53c 0e96 8dbc
000000d0: eb89 6bbd f5c2 143c fd1f 053d 61be 4f3d
000000e0: 0fc0 09bd 3632 453c 207e af3c 1353 85bc
000000f0: a735 0b3d fdd8 d2bb f50f dd3b 40ba 75bd
00000100: b7aa f637 5d9e 403d d158 1c3d df3d f0bc
00000110: e5a2 c1bc 350d 013c baf7 c4bc 1895 ae3a
00000120: 68b1 7d3c 92a7 4c3c cae2 443c ed07 25bc
00000130: e881 8bbc 1649 513c 4c01 02bd 321d fe3c
00000140: 7ab4 c13c 940a 37bd cca2 7f3d 7036 eb3d
00000150: 1027 673c 2e08 d33b b81d b2bc 5fd6 25bc
00000160: 7b05 623d b1b1 aa3d 6302 89bd a1f3 c63b
00000170: 67c5 eabc dc79 3e3d e514 28bc ef68 1abd
00000180: 79be 7abd 760b 443c 52fa 1b3d 93d6 09bd
00000190: e8ac 8abd a758 2f3b 6b90 7e3d 60cf 7f3d
000001a0: 492a e1bc 4c15 44bb f210 413c 653b 8b3c
000001b0: a62b bbbb db7e 1a3c c203 9e3a 4efc d1ba
000001c0: 07f5 1b3d a040 6e3d 32b0 943d 1520 bdbc
000001d0: 5961 67bc f763 35bd d1ff 973c 149d b43c
000001e0: 5c55 873c cdec 833c 4836 9dbd ae7f 433c
000001f0: 22df c537 fa65 1abb cb07 29bc 1a14 2abd
00000200: e7a2 cdbc 0c0c e23b 0a50 29bd f1d4 ad3c
00000210: db0a 61bd 5626 26bd 5a09 b1bc 7d3c d03c
00000220: efbd fd3c 73f4 8fbd e0ee d6bc fd0c f63c
00000230: 474f 63bc 20ba 34bd 3146 953c 342b bbbc
00000240: 5340 fb3c 0347 073d e1a0 583d 4cb7 26bd
00000250: a3c4 163d 1d4c 043d 6e6c 1f3d a6e8 373d
00000260: 354d 5abc aaf2 47bc 5a45 ecb9 0614 bc3c
00000270: 4b75 13bd 8856 1b3d 8068 973c 052a 1f3d
00000280: 4c54 4c3c 20d6 1f3d 0933 1ebd dcfb f4bc
00000290: 1b1f 93bd 2799 ad3c 37d8 483c a1ca 723c
000002a0: 6841 c53c fcbc 863c 00d1 863c 57ac d5bc
000002b0: 2903 1a3d 97b5 a9bc b3f5 47bc 2d40 80bc
000002c0: a78c 763c 3e66 62bd 2cf9 993c 4c21 acbd
000002d0: 630c 23bd cab5 b9bc 5374 8f3c 7f0c d0bc
000002e0: 2e5c c23d e5e1 d6bc a23e 6ebd f2a3 08bd
000002f0: 1a6a 72bd 4138 623d c05d bfbc bfa1 9fbb
00000300: 50c6 6dbd 3aeb 4b3d 7a8d 163d 9748 bd3c
00000310: eaf2 b93c b957 183c 3269 633d 3319 b93d
00000320: a5d5 803c ec0f f33c e45e 1b3d eeab 47ba
00000330: 191a 37bd 4195 ae3d 7118 423c 4108 28bb
00000340: bcf7 a03c efeb 993d f7a4 bbbc b1a3 4dbc
00000350: c0d6 92bb 5824 33bd 227e 36bd 184b c93c
00000360: 3c0d 573d a4da 203d bd58 8abd 6c33 3fbd
00000370: fcd9 063d b600 a33b e445 53bb 008a 9bbc
00000380: c243 a3bd c38b 443b 80c5 62bd ce5b fc3c
00000390: 879c f5bc e9d6 31bd 2035 953c 536d 89bc
000003a0: 82a5 90bc b68b 6fbc e71c 36bb 0702 8d3d
000003b0: 0cfb e33c 668b 1b3c edc2 383c d726 74bc
000003c0: 794b 3f3d a895 113d 2a7b e73c 49ec 1ebd
000003d0: a52c e03c 016f 623c b675 47bd 871b ef3c
000003e0: 38a0 b9bb 0ebd 3bbd 9891 713c 1ecd f03c
000003f0: 9508 853d 000d d1bc be08 4b3d b503 e43b

conv2.bias f4 [16]
-0.024233462 0.02421127 -0.0039654686 0.057407215 0.011662484 0.037919015 0.01720678 -0.0172933
0.009660623 0.010997815 0.0017878441 0.013963954 -0.0012490732 0.01589384 0.017653586 0.029674446
00000000: 4185 c6bc b756 c63c c3f0 81bb d423 6b3d
00000010: 0114 3f3c f850 1b3d 3cf5 8c3c aeaa 8dbc
00000020: 9747 1e3c 2e30 343c 1856 ea3a 11c9 643c
00000030: f1b7 a3ba cc33 823c 419e 903c d317 f33c

conv3.weight f4 [16, 16, 5, 5]
-0.007278688 -0.06422788 0.02294751 -0.032038562 -0.073086336 -0.05125575 -0.046106227 0.04285052
-0.019056646 -0.051290587 -0.021202756 -0.0098184245 0.0028987403 -0.05048254 0.041077666 -0.014659868
0.029484103 -0.03485545 -0.06714944 0.10261742 0.011715683 -0.044347055 0.013572043 -0.006474853
0.0004187409 -0.11585937 -0.030626854 -0.032212082 -0.00042345468 -0.055763986 0.028346594 0.0031629894
0.0073405234 0.0071067726 0.038848504 -0.04077547 -0.031306118 -0.008068692 0.030396337 0.0038974076
-0.005442066 0.025648557 0.008157772 -0.037122745 0.009888168 0.011457255 0.0065041063 0.02929107
0.041452553 0.029695626 -0.014499042 0.02674823 -0.031729344 -0.06331659 -0.0031377207 0.02394264
-0.005993437 0.07429899 -0.060286567 0.0105104735 -0.01786856 -0.029342948 0.0836859 -0.028239656
-0.07123539 0.031553518 -0.03262203 -0.0066258465 -0.010305089 0.011592678 -0.016147278 -0.0146554895
-0.042100072 -0.013681967 0.0738653 0.11377546 -0.037224244 -0.15267146 0.020554785 0.06180227
0.007819297 -0.00455145 -0.007821921 0.022512686 0.016186751 -0.029362481 0.049320262 -0.0360344
0.0037556454 0.07063094 0.012874297 -0.011070991 -0.008768074 -0.017367588 0.017069235 -0.0028825616
0.0043714773 0.015098358 -0.032697175 -0.09552154 0.045386918 0.027145812 -0.024867946 0.030180516
-0.048884865 -0.004481629 -0.0036420429 0.047742885 -0.0327575 -0.053958233 0.03362594 0.046151064
0.032004856 0.05387004 -0.06818397 -0.035343923 0.019967895 -0.02526806 0.042967938 0.022689985
0.03332868 -0.012041701 0.02974554 -0.0314907 0.006935342 0.04359742 0.008460265 -0.011000001
-0.016792703 -0.033010025 0.02294623 -0.032886684 -0.018496227 0.032324474 0.019148268 0.003314494
0.06560108 0.023001194 0.025720008 0.038185596 -0.013109763 -0.040006455 -0.028393993 -0.03298975
0.00782282 0.022752397 0.045473434 0.028335704 0.02447111 0.037725504 -4.5090463e-05 0.021342052
-0.054083224 0.06763961 0.021990431 -0.012273281 -0.0061459807 0.0054590194 -0.0047203787 -0.007285197
-0.032575205 -0.006838061 0.015343588 -0.048914008 0.037338033 -0.01786889 0.035076633 0.023553306
-0.01182437 0.0090949945 0.013009475 0.03669527 0.0049241786 -0.021767458 0.0023011386 -0.022787342
0.029301949 0.009607727 0.035907146 -0.000429226 0.0008806453 -0.03308411 -0.0019987584 0.00022338156
-0.011631944 -0.031885065 0.025925267 -0.007855335 0.03586645 0.019055823 -0.046657335 0.022464434
-0.014311423 0.055231832 0.013309832 -0.02333363 -0.034410197 0.025574042 0.017187713 0.01917202
0.01569882 -0.020089542 -0.03951552 -0.038644306 -0.052589834 0.007306327 0.032483518 -0.041979365
-0.0051081046 -0.016778683 -0.018967248 -0.047561195 -0.03338151 0.02129764 0.005700955 -0.031071413
-0.08012524 -0.04945624 0.010484699 0.024593778 -0.017899783 -0.036859777 0.016020853 -0.026198098
-0.0040419395 -0.041511253 0.0069653303 0.028775305 0.048981693 -0.003787871 0.026830614 0.01697429
-0.043451652 0.005466144 -0.031395692 -0.023820795 -0.023932686 0.043002326 -0.040480644 -0.03643879
-0.029457787 0.036052655 -0.014553849 0.018265128 0.018473951 0.037390944 -0.017801207 0.008197382
-0.017846053 -0.0020369915 -0.02856769 -0.01618627 -0.01344671 -0.055768955 0.027749568 0.053661626
00000000: 0f82 eebb e889 83bd 6bfc bb3c de3a 03bd
00000010: 4aae 95bd 8df1 51bd e2d9 3cbd 0784 2f3d
00000020: af1c 9cbc 1416 52bd 67b1 adbc 75dd 20bc
00000030: cbf8 3d3b c8c6 4ebd 0e41 283d f12f 70bc
00000040: a588 f13c 97c4 0ebd a585 89bd 1529 d23d
00000050: 23f3 3f3c 42a5 35bd 465d 5e3c 012b d4bb
00000060: 748a db39 ad47 edbd 2be5 fabc d1f0 03bd
00000070: 2003 deb9 c768 64bd 1e37 e83c 284a 4f3b
00000080: c688 f03b eedf e83b 9c1f 1f3d 2e04 27bd
00000090: d83a 00bd 8c32 04bc bd01 f93c a66b 7f3b
000000a0: 5c53 b2bb ec1c d23c 2da8 053c 050e 18bd
000000b0: fc01 223c 36b7 3b3c 6620 d53b d3f3 ef3c
000000c0: 27ca 293d 3e44 f33c 648d 6dbc 1b1f db3c
000000d0: a1f6 01bd 21ac 81bd 38a2 4dbb 5b23 c43c
000000e0: 9864 c4bb 122a 983d 0cef 76bd 1f34 2c3c
000000f0: 1661 92bc 9f60 f0bc 8363 ab3d da56 e7bc
00000100: dce3 91bd 433e 013d ad9e 05bd a11d d9bb
00000110: add6 28bc 37ef 3d3c 4c47 84bc 941d 70bc
00000120: 2071 2cbd 542a 60bc b146 973d 1c03 e93d
00000130: 7378 18bd e855 1cbe 8262 a83c 6124 7d3d
00000140: 821c 003c 5424 95bb 8427 00bc 866c b83c
00000150: 149a 843c 9689 f0bc 0b04 4a3d cf98 13bd
00000160: 4621 763b f4a6 903d b7ee 523c 1a63 35bc
00000170: f8a7 0fbc 7946 8ebc c8d4 8b3c 5ce9 3cbb
00000180: 9c3e 8f3b 1a5f 773c 79ed 05bd cca0 c3bd
00000190: a2e7 393d e560 de3c ddb7 cbbc 213d f73c
000001a0: 7f3b 48bd a1da 92bb 57af 6ebb 0b8e 433d
000001b0: ba2c 06bd 4f03 5dbd 5bbb 093d e608 3d3d
000001c0: 8617 033d d5a6 5c3d 0aa4 8bbd cac4 10bd
000001d0: b693 a33c f6fe cebc 26ff 2f3d 59e0 b93c
000001e0: a783 083d 8e4a 45bc ebac f33c 64fc 00bd
000001f0: de41 e33b 3593 323d ec9c 0a3c 5939 34bc
00000200: da90 89bc 8535 07bd bbf9 bb3c 30b4 06bd
00000210: 6685 97bc ab66 043d d4dc 9c3c fb37 593b
00000220: dc59 863d 006d bc3c c4b2 d23c 8068 1c3d
00000230: 55ca 56bc cfdd 23bd 859a e8bc 4320 07bd
00000240: 492b 003c 3c63 ba3c 5a42 3a3d 4720 e83c
00000250: a377 c83c 0f86 1a3d 841f 3db8 87d5 ae3c
00000260: 5f86 5dbd a386 8a3d 4725 b43c df15 49bc
00000270: 3964 c9bb 93e1 b23b 68ad 9abb a9b8 eebb
00000280: 946d 05bd d011 e0bb ac63 7b3c 0e5a 48bd
00000290: c4ef 183d c761 92bc 84ac 0f3d ddf2 c03c
000002a0: 01bb 41bc 2c03 153c b125 553c c84d 163d
000002b0: 015b a13b ab51 b2bc b3ce 163b 85ac babc
000002c0: a40a f03c ba69 1d3c 5f13 133d bd09 e1b9
000002d0: 1bdb 663a 3483 07bd 9afd 02bb 883b 6a39
000002e0: e993 3ebc ea99 02bd 3a61 d43c aab3 00bc
000002f0: b3e8 123d f51a 9c3c c31b 3fbd 5507 b83c
00000300: 757a 6abc c63a 623d 7b11 5a3c 2b26 bfbc
00000310: b5f1 0cbd a780 d13c 3fcd 8c3c a40e 9d3c
00000320: d09a 803c d392 a4bc 07db 21bd 7e49 1ebd
00000330: 7068 57bd ea69 ef3b 700d 053d 8ef2 2bbd
00000340: e361 a7bb 7373 89bc 3461 9bbc 87cf 42bd
00000350: 0dbb 08bd 6378 ae3c 14cf ba3b 7a89 febc
00000360: b418 a4bd a092 4abd 04c8 2b3c e478 c93c
00000370: 91a2 92bc 47fa 16bd 2a3e 833c 659d d6bc
00000380: 3f72 84bb b407 2abd 6d3d e43b 30ba eb3c
00000390: 07a1 483d ee3d 78bb e0cb db3c ab0d 8b3c
000003a0: 5cfa 31bd 571d b33b c598 00bd d423 c3bc
000003b0: 7b0e c4bc 3523 303d 08cf 25bd d740 15bd
000003c0: 7551 f1bc f3ab 133d 4473 6ebc c0a0 953c
000003d0: af56 973c 3f27 193d d6d3 91bc 504e 063c
000003e0: e331 92bc 0c7f 05bb ca06 eabc 1299 84bc
000003f0: 974f 5cbc fd6d 64bd 1053 e33c 4bcc 5b3d

conv3.bias f4 [16]
-0.056570772 0.04206138 -0.022836398 0.0035261572 0.044586968 0.010534362 -0.013414862 0.005061357
-0.029085333 0.0029788432 -0.008560142 0.02696548 0.01955381 0.050692998 0.042502385 -0.009525391
00000000: c1b6 67bd 8e48 2c3d 6613 bbbc 1a17 673b
00000010: d3a0 363d 5198 2c3c 02ca 5bbc bdd9 a53b
00000020: 5d44 eebc b238 433b d63f 0cbc b6e6 dc3c
00000030: 502f a03c 76a3 4f3d fb16 2e3d 6310 1cbc

convK.weight f4 [16, 1, 3, 3]
0.29968268 -0.33920935 0.05524656 0.07627733 -0.06519933 -0.096511915 -0.09682411 0.15697838
-0.15774632 0.07316284 0.08020247 0.21074703 0.00024113982 0.36955294 -0.39251256 -0.18282485
-0.18811472 0.03402395 -0.2850215 0.23685732 -0.10970514 -0.038558178 0.3189718 -0.16804588
0.108613476 -0.25810337 0.20506059 0.023138544 -0.46369144 -0.037334945 0.0077293226 0.060881324
0.27883282 0.005780325 -0.09195249 0.3331563 -0.11925702 0.30796432 0.188713 -0.3835779
-0.101028845 0.083526574 -0.1743344 0.14328611 -0.118775316 -0.21830778 0.22885197 0.13575329
0.27566698 -0.07686057 -0.09582626 -0.28565648 0.040354323 0.27589595 0.001126624 -0.12694722
0.17982644 -0.030289607 0.012394146 0.26383933 0.27719158 0.23005894 -0.38778862 0.012612716
0.311604 0.28358093 -0.30047187 0.31650978 -0.17435443 -0.12763469 -0.15332662 -0.10936125
-0.10154456 -0.07120312 -0.09302948 0.25568965 -0.19443086 0.38948652 -0.31188565 0.13428661
-0.14608851 -0.16630186 0.12351937 -0.06877567 -0.20663153 0.064677715 -0.25721422 -0.25049987
0.3248019 0.054462925 -0.20590606 0.24695031 0.20087269 0.0831606 0.11846967 0.13666669
-0.3876075 -0.14151461 0.31252998 0.07341507 0.48693156 0.40489194 -0.0066593653 -0.41369522
0.013868343 -0.017887041 -0.068473086 -0.32267106 0.33796987 0.26048267 -0.16634436 0.038755238
-0.3188475 0.13663147 -0.11952899 -0.2529015 -0.18904673 -0.31862116 0.3247244 -0.12925382
0.2808087 -0.06365411 -0.093482174 -0.09261766 -0.23988841 0.13607296 -0.1754638 0.03026757
-0.24435909 0.10132271 0.3442973 -0.10747968 0.16001551 -0.35474557 -0.14195815 0.2570098
0.09276414 0.09044354 0.12215958 -0.20039144 -0.17145678 0.37433654 -0.104816385 -0.0144592
00000000: 0270 993e d9ac adbe 384a 623d 4a37 9c3d
00000010: 3a87 85bd 0aa8 c5bd b84b c6bd f1be 203e
00000020: 4088 21be 66d6 953d 3141 a43d 12ce 573e
00000030: 7ada 7c39 0b36 bd3e 68f7 c8be 7036 3bbe
00000040: 25a1 40be b35c 0b3d 57ee 91be ba8a 723e
00000050: 17ad e0bd 2eef 1dbd 4650 a33e 3814 2cbe
00000060: be70 de3d 2026 84be 67fb 513e 0b8d bd3c
00000070: f768 edbe 87ec 18bd 4246 fd3b b25e 793d
00000080: 2dc3 8e3e e168 bd3b 9651 bcbd 7693 aa3e
00000090: 063d f4bd 80ad 9d3e fb3d 413e 5364 c4be
000000a0: 36e8 cebd fb0f ab3d b884 32be 98b9 123e
000000b0: 7940 f3bd 138c 5fbe 2c58 6a3e e902 0b3e
000000c0: 3924 8d3e 1369 9dbd 8f40 c4bd 9141 92be
000000d0: 934a 253d 3c42 8d3e 3aab 933a 74fe 01be
000000e0: 6c24 383e e921 f8bc d110 4b3c f315 873e
000000f0: 0eec 8d3e 9294 6b3e 3b8c c6be 91a5 4e3c
00000100: 8f8a 9f3e 8531 913e 73d7 99be 920d a23e
00000110: f889 32be abb2 02be a701 1dbe cbf8 dfbd
00000120: 98f6 cfbd f1d2 91bd 3d86 bebd c1e9 823e
00000130: e218 47be c76a c73e 7aaf 9fbe 6e82 093e
00000140: 3a98 15be 094b 2abe b9f7 fc3d 42da 8cbd
00000150: 3797 53be c075 843d 95b1 83be 8541 80be
00000160: 6f4c a63e 8414 5f3d 0ad9 52be 8be0 7c3e
00000170: 92b1 4d3e 1b50 aa3d 3aa0 f23d 5af2 0b3e
00000180: 7e74 c6be 35e9 10be ee03 a03e a45a 963d
00000190: 184f f93e ff4d cf3e ce36 dabb dccf d3be
000001a0: 0c38 633c d887 92bc 9e3b 8cbd 2435 a5be
000001b0: 630a ad3e fc5d 853e 2d56 2abe d0bd 1e3d
000001c0: fb3f a3be 1fe9 0b3e 9dcb f4bd 4e7c 81be
000001d0: 7795 41be 5022 a3be 4742 a63e 1d5b 04be
000001e0: 28c6 8f3e 165d 82bd 9573 bfbd 54ae bdbd
000001f0: 4fa5 75be b656 0b3e c8ac 33be b2f3 f73c
00000200: 4539 7abe 4882 cf3d bc47 b03e 4e1e dcbd
00000210: 1bdb 233e 36a1 b5be 7a5d 11be ca96 833e
00000220: 20fb bd3d 763a b93d cd2e fa3d 6a33 4dbe
00000230: 5e92 2fbe 0aa9 bf3e f9a9 d6bd 48e6 6cbc

convK_T.weight f4 [16, 1, 3, 3]
0.29968268 -0.33920935 0.05524656 0.07627733 -0.06519933 -0.096511915 -0.09682411 0.15697838
-0.15774632 0.07316284 0.08020247 0.21074703 0.00024113982 0.36955294 -0.39251256 -0.18282485
-0.18811472 0.03402395 -0.2850215 0.23685732 -0.10970514 -0.038558178 0.3189718 -0.16804588
0.108613476 -0.25810337 0.20506059 0.023138544 -0.46369144 -0.037334945 0.0077293226 0.060881324
0.27883282 0.005780325 -0.09195249 0.3331563 -0.11925702 0.30796432 0.188713 -0.3835779
-0.101028845 0.083526574 -0.1743344 0.14328611 -0.118775316 -0.21830778 0.22885197 0.13575329
0.27566698 -0.07686057 -0.09582626 -0.28565648 0.040354323 0.27589595 0.001126624 -0.12694722
0.17982644 -0.030289607 0.012394146 0.26383933 0.27719158 0.23005894 -0.38778862 0.012612716
0.311604 0.28358093 -0.30047187 0.31650978 -0.17435443 -0.12763469 -0.15332662 -0.10936125
-0.10154456 -0.07120312 -0.09302948 0.25568965 -0.19443086 0.38948652 -0.31188565 0.13428661
-0.14608851 -0.16630186 0.12351937 -0.06877567 -0.20663153 0.064677715 -0.25721422 -0.25049987
0.3248019 0.054462925 -0.20590606 0.24695031 0.20087269 0.0831606 0.11846967 0.13666669
-0.3876075 -0.14151461 0.31252998 0.07341507 0.48693156 0.40489194 -0.0066593653 -0.41369522
0.013868343 -0.017887041 -0.068473086 -0.32267106 0.33796987 0.26048267 -0.16634436 0.038755238
-0.3188475 0.13663147 -0.11952899 -0.2529015 -0.18904673 -0.31862116 0.3247244 -0.12925382
0.2808087 -0.06365411 -0.093482174 -0.09261766 -0.23988841 0.13607296 -0.1754638 0.03026757
-0.24435909 0.10132271 0.3442973 -0.10747968 0.16001551 -0.35474557 -0.14195815 0.2570098
0.09276414 0.09044354 0.12215958 -0.20039144 -0.17145678 0.37433654 -0.104816385 -0.0144592
00000000: 0270 993e d9ac adbe 384a 623d 4a37 9c3d
00000010: 3a87 85bd 0aa8 c5bd b84b c6bd f1be 203e
00000020: 4088 21be 66d6 953d 3141 a43d 12ce 573e
00000030: 7ada 7c39 0b36 bd3e 68f7 c8be 7036 3bbe
00000040: 25a1 40be b35c 0b3d 57ee 91be ba8a 723e
00000050: 17ad e0bd 2eef 1dbd 4650 a33e 3814 2cbe
00000060: be70 de3d 2026 84be 67fb 513e 0b8d bd3c
00000070: f768 edbe 87ec 18bd 4246 fd3b b25e 793d
00000080: 2dc3 8e3e e168 bd3b 9651 bcbd 7693 aa3e
00000090: 063d f4bd 80ad 9d3e fb3d 413e 5364 c4be
000000a0: 36e8 cebd fb0f ab3d b884 32be 98b9 123e
000000b0: 7940 f3bd 138c 5fbe 2c58 6a3e e902 0b3e
000000c0: 3924 8d3e 1369 9dbd 8f40 c4bd 9141 92be
000000d0: 934a 253d 3c42 8d3e 3aab 933a 74fe 01be
000000e0: 6c24 383e e921 f8bc d110 4b3c f315 873e
000000f0: 0eec 8d3e 9294 6b3e 3b8c c6be 91a5 4e3c
00000100: 8f8a 9f3e 8531 913e 73d7 99be 920d a23e
00000110: f889 32be abb2 02be a701 1dbe cbf8 dfbd
00000120: 98f6 cfbd f1d2 91bd 3d86 bebd c1e9 823e
00000130: e218 47be c76a c73e 7aaf 9fbe 6e82 093e
00000140: 3a98 15be 094b 2abe b9f7 fc3d 42da 8cbd
00000150: 3797 53be c075 843d 95b1 83be 8541 80be
00000160: 6f4c a63e 8414 5f3d 0ad9 52be 8be0 7c3e
00000170: 92b1 4d3e 1b50 aa3d 3aa0 f23d 5af2 0b3e
00000180: 7e74 c6be 35e9 10be ee03 a03e a45a 963d
00000190: 184f f93e ff4d cf3e ce36 dabb dccf d3be
000001a0: 0c38 633c d887 92bc 9e3b 8cbd 2435 a5be
000001b0: 630a ad3e fc5d 853e 2d56 2abe d0bd 1e3d
000001c0: fb3f a3be 1fe9 0b3e 9dcb f4bd 4e7c 81be
000001d0: 7795 41be 5022 a3be 4742 a63e 1d5b 04be
000001e0: 28c6 8f3e 165d 82bd 9573 bfbd 54ae bdbd
000001f0: 4fa5 75be b656 0b3e c8ac 33be b2f3 f73c
00000200: 4539 7abe 4882 cf3d bc47 b03e 4e1e dcbd
00000210: 1bdb 233e 36a1 b5be 7a5d 11be ca96 833e
00000220: 20fb bd3d 763a b93d cd2e fa3d 6a33 4dbe
00000230: 5e92 2fbe 0aa9 bf3e f9a9 d6bd 48e6 6cbc

exp_avg f4 [16, 16, 5, 5]
8.805808e-09 4.9863893e-08 3.6482277e-08 3.190108e-08 2.7611465e-08 -1.4223699e-10 3.5968945e-08 3.4216903e-08
5.4359518e-08 2.3278801e-08 4.02857e-09 3.271777e-08 2.0245205e-08 4.746086e-08 2.7508818e-08 1.5155011e-08
2.2564604e-08 -4.924284e-09 2.6362914e-08 3.2745398e-08 1.4612536e-08 1.098762e-08 -2.5850262e-08 1.4114352e-08
2.0423876e-08 3.18379e-08 2.066727e-08 3.4587668e-08 1.7049395e-08 1.9893902e-08 1.8690516e-08 8.9477235e-09
1.1645037e-08 -1.2882981e-08 -9.260031e-09 2.3893866e-08 -3.0968766e-10 -4.3020463e-09 -1.3220292e-08 -2.6281072e-08
2.8848215e-09 -6.4824355e-09 7.975425e-09 -1.2962968e-08 -4.611708e-08 -1.3782439e-08 -1.9444903e-08 -6.5767564e-10
-1.7207455e-08 -3.357402e-08 4.624416e-09 -1.9199959e-08 -9.160381e-09 -1.6627645e-08 -1.271621e-08 1.6804876e-08
-6.4798455e-09 3.481894e-10 -2.3951936e-08 -3.2570022e-10 1.52565e-08 -1.554335e-08 3.6191772e-09 -6.718699e-09
-1.9909374e-09 -1.014688e-08 -1.5441342e-08 1.9088539e-08 3.279885e-09 -2.0252738e-08 -5.7969824e-09 -9.966286e-09
2.8768477e-08 7.5179635e-10 -1.0515758e-08 -5.2744866e-08 -3.9904965e-08 -6.2459954e-08 -6.5141116e-08 -4.7611483e-08
-3.9059962e-08 -1.9067834e-08 -2.8651595e-08 -2.8483948e-08 -1.7376427e-08 -3.08991e-08 -2.992097e-09 -1.1513882e-08
-1.5216337e-08 8.685423e-09 -2.3698744e-08 8.906185e-09 -6.8724844e-09 -8.149296e-09 3.1479427e-08 5.134077e-09
6.464584e-09 6.0757155e-09 2.2597547e-08 4.7540276e-08 4.180934e-08 -2.363782e-08 2.7892652e-08 3.2391533e-08
4.7631683e-08 2.7073161e-08 -2.5401345e-08 5.466656e-09 -1.186824e-08 1.7275859e-08 1.744523e-08 -4.916851e-09
1.9867718e-08 -3.4682213e-08 -1.4487637e-08 3.3514375e-08 2.0481734e-08 4.1631445e-08 -3.145862e-08 -2.459622e-08
2.0192983e-08 2.2859066e-08 4.3354053e-08 -2.5881214e-08 -3.0333354e-08 -1.763024e-08 -4.9271087e-08 -3.174045e-08
-4.18382e-08 -4.598275e-08 -1.8366462e-08 -4.0678906e-08 -3.3806206e-08 -6.6855385e-08 -5.5736667e-08 -1.0142557e-08
-2.4352236e-08 -3.125686e-08 -6.330094e-08 -4.087088e-08 -1.7780398e-08 -3.0639328e-08 -1.2725107e-09 -2.7734284e-08
-3.7821145e-08 -2.8943136e-08 -2.6944408e-08 2.4776234e-09 -1.2970018e-08 -2.0919208e-08 -3.696413e-08 -3.7609638e-08
-4.53911e-08 -4.78152e-08 -6.86203e-08 -3.1927435e-08 -5.572674e-08 -6.906006e-08 -3.5383913e-08 -5.57247e-08
-5.425972e-08 -6.6750104e-08 -5.9051825e-08 -3.7094225e-08 -6.1134415e-08 -5.1789762e-08 -4.991899e-08 -5.6551357e-08
-4.837024e-08 -3.6224588e-08 -3.0558247e-08 -2.097829e-08 -4.4340933e-08 -3.6485943e-08 -7.2210153e-09 4.4424787e-08
-9.607609e-09 2.4438894e-08 1.6759234e-08 2.818986e-08 2.4152525e-08 -2.3273449e-08 -1.474556e-08 -4.2220066e-08
-1.7689503e-08 1.7973647e-08 -2.5137371e-08 -1.567015e-08 -5.480921e-08 -5.8208915e-08 6.134681e-09 -9.666587e-09
1.17052705e-08 -5.0754593e-08 -7.614335e-08 -1.4993546e-08 -1.5231567e-08 1.6816182e-08 -4.2801283e-08 -5.911504e-08
3.6154721e-09 -2.3795292e-09 1.5885252e-09 4.999489e-09 8.26654e-09 9.38768e-09 9.663996e-09 1.4168688e-08
1.3752035e-08 1.2752018e-08 7.652331e-09 2.080937e-08 1.3778383e-08 -6.175772e-09 7.871675e-09 1.088308e-08
8.211069e-09 2.442224e-09 -1.4231292e-08 4.065105e-09 4.3511195e-09 1.5543238e-08 7.1187514e-09 1.09154925e-08
1.2360782e-08 4.5109214e-08 2.139393e-09 4.8153307e-08 2.7371593e-08 3.999518e-08 3.72357e-08 8.518793e-09
6.657039e-08 3.509082e-08 3.6197484e-08 2.9599793e-08 2.3611493e-08 7.523048e-08 3.783593e-08 3.585775e-08
3.741043e-08 2.6847422e-08 7.499583e-08 3.9287645e-08 2.8345589e-08 3.843974e-08 2.3627107e-08 4.9187598e-08
2.2098341e-08 1.1898167e-08 -1.135583e-08 -7.779189e-08 -5.4118807e-08 -6.3477295e-08 -4.5945544e-08 -1.7602732e-08
00000000: 5a48 1732 ee29 5633 b0b0 1c33 9c03 0933
00000010: 412e ed32 2764 1caf 467c 1a33 e2f5 1233
00000020: ec78 6933 a0f6 c732 ad6b 8a31 9285 0c33
00000030: ade7 ad32 c4d7 4b33 884c ec32 392e 8232
00000040: 17d4 c132 7632 a9b1 a974 e232 f2a3 0c33
00000050: 9d0a 7b32 10c4 3c32 540d deb2 947b 7232
00000060: 9470 af32 24be 0833 cf87 b132 8b8d 1433
00000070: 0474 9232 27e3 aa32 e18c a032 81b8 1932
00000080: 6a0f 4832 f353 5db2 0c16 1fb2 2b3f cd32
00000090: aa40 aaaf 33d1 93b1 761f 63b2 b0c0 e1b2
000000a0: 513e 4631 1bbc deb1 4a04 0932 bcb3 5eb2
000000b0: 4412 46b3 cfc7 6cb2 cb07 a7b2 cfc7 34b0
000000c0: 98cf 93b2 0633 10b3 cbe4 9e31 28ed a4b2
000000d0: c85f 1db2 94d4 8eb2 7c76 5ab2 505a 9032
000000e0: 53a5 deb1 4d6b bf2f ddbe cdb2 3b0e b3af
000000f0: 660d 8332 3084 85b2 3db5 7831 4dda e6b1
00000100: f1d0 08b1 7352 2eb2 dfa3 84b2 24f8 a332
00000110: 5964 6131 3ef8 adb2 cc2e c7b1 3038 2bb2
00000120: 8d1e f732 f7a6 4e30 cba8 34b2 9889 62b3
00000130: f963 2bb3 b921 86b3 b5e3 8bb3 617d 4cb3
00000140: e2c2 27b3 9cca a3b2 861d f6b2 ddac f4b2
00000150: 2b43 95b2 ebb5 04b3 879d 4db1 97ce 45b2
00000160: 14b5 82b2 e536 1532 1792 cbb2 d101 1932
00000170: 0323 ecb1 fc00 0cb2 ff33 0733 d267 b031
00000180: 151f de31 8fc2 d031 881c c232 162f 4c33
00000190: db91 3333 1e0c cbb2 9798 ef32 de1e 0b33
000001a0: 9793 4c33 838e e832 2632 dab2 37d5 bb31
000001b0: 12e5 4bb2 0466 9432 77da 9532 14f1 a8b1
000001c0: 93a9 aa32 7ff5 14b3 4de5 78b2 72f1 0f33
000001d0: cfef af32 42ce 3233 1e1d 07b3 a947 d3b2
000001e0: d774 ad32 9e5b c432 4934 3a33 6451 deb2
000001f0: e047 02b3 4f71 97b2 229e 53b3 fe52 08b3
00000200: 96b1 33b3 917e 45b3 47c4 9db2 eeb6 2eb3
00000210: 5132 11b3 2392 8fb3 1d63 6fb3 703f 2eb2
00000220: 222f d1b2 483f 06b3 0ff0 87b3 028a 2fb3
00000230: 82bb 98b2 4c98 03b3 7de4 aeb0 563c eeb2
00000240: ca70 22b3 a19e f8b2 6173 e7b2 d042 2a31
00000250: bed2 5eb2 d3b1 b3b2 7ec2 1eb3 3c88 21b3
00000260: 0bf4 42b3 5e5d 4db3 695c 93b3 9620 09b3
00000270: 3358 6fb3 2b4e 94b3 06f9 17b3 f555 6fb3
00000280: 310b 69b3 4258 8fb3 2ba0 7db3 8851 1fb3
00000290: 0049 83b3 726f 5eb3 8366 56b3 e0e2 72b3
000002a0: a4bf 4fb3 5b95 1bb3 263f 03b3 bf33 b4b2
000002b0: 5f71 3eb3 b8b4 1cb3 b91c f8b1 92cd 3e33
000002c0: b60e 25b2 b2ed d132 f2f5 8f32 2826 f232
000002d0: f777 cf32 dbea c7b2 a953 7db2 7455 35b3
000002e0: a1f3 97b2 7864 9a32 aaed d7b2 069b 86b2
000002f0: 5d67 6bb3 6101 7ab3 3ac9 d231 1912 26b2
00000300: 5318 4932 44fd 59b3 4084 a3b3 28cb 80b2
00000310: 92d6 82b2 2d73 9032 82d4 37b3 ade5 7db3
00000320: 0f74 7831 1f85 23b1 4353 da30 f8c7 ab31
00000330: a104 0e32 7447 2132 b406 2632 8c6a 7332
00000340: 1742 6c32 f813 5b32 4f77 0332 4ac0 b232
00000350: f8b5 6c32 aa32 d4b1 fe3b 0732 4bf8 3a32
00000360: aa10 0d32 0fd4 2731 e27d 74b2 0bad 8b31
00000370: da80 9531 f183 8532 3399 f431 d886 3b32
00000380: 4b5b 5432 1bbe 4133 9a04 1331 1fd1 4e33
00000390: c51e eb32 2ac7 2b33 16ed 1f33 0c5a 1232
000003a0: 75f5 8e33 c4b6 1633 8e77 1b33 a242 fe32
000003b0: 39d2 ca32 658e a133 0c81 2233 0302 1a33
000003c0: 34ad 2033 1b9e e632 650d a133 39bd 2833
000003d0: 9c7c f332 f118 2533 8ff4 ca32 5642 5333
000003e0: c4d2 bd32 b168 4c32 7817 43b2 8b0e a7b3
000003f0: 4270 68b3 0351 88b3 a955 45b3 d134 97b2

exp_avg_sq f4 [16, 16, 5, 5]
6.368916e-13 8.113684e-13 8.415993e-13 7.278209e-13 1.0099479e-12 7.1382527e-13 9.04696e-13 9.481387e-13
1.2856234e-12 6.2215413e-13 6.6006526e-13 1.0255925e-12 1.6478322e-12 6.8065004e-13 7.820431e-13 6.178712e-13
1.2280414e-12 1.0196479e-12 9.198399e-13 3.836853e-13 7.1523587e-13 8.883814e-13 1.0218368e-12 4.410347e-13
8.318596e-13 6.8756085e-13 6.884083e-13 1.1792515e-12 1.0569347e-12 4.969935e-13 4.0518993e-13 1.5308244e-12
9.174062e-13 8.554798e-13 8.1213617e-13 1.2398833e-12 8.851126e-13 1.4445671e-12 8.205076e-13 6.9342194e-13
5.7888807e-13 1.6376292e-12 8.429971e-13 1.1459279e-12 6.659014e-13 1.2442894e-12 5.738861e-13 1.2912778e-12
6.5227305e-13 4.861479e-13 4.470802e-13 8.6832874e-13 1.1874662e-12 1.1573112e-12 9.167572e-13 5.880439e-13
1.0128247e-12 1.4725927e-12 1.4081632e-12 8.2262045e-13 6.8850383e-13 1.4899468e-12 1.6720272e-12 9.143199e-13
1.2666929e-12 9.146066e-13 1.1209348e-12 1.0329374e-12 1.6535511e-12 6.045306e-13 7.1129084e-13 8.5690786e-13
1.6191837e-12 6.5013533e-13 8.1033146e-13 5.894215e-13 9.286753e-13 8.079718e-13 5.3952513e-13 2.5023137e-13
6.9762815e-13 1.4037837e-12 7.8647066e-13 3.9656567e-13 3.5188047e-13 9.919845e-13 8.233208e-13 4.1301722e-13
3.5943048e-13 3.2310444e-13 4.978104e-13 5.1514283e-13 4.0951988e-13 4.1846005e-13 4.1842606e-13 3.9276628e-13
4.4525852e-13 3.4900918e-13 4.7044855e-13 1.6869363e-13 7.2319375e-13 8.758265e-13 7.0378306e-13 9.863715e-13
1.0374919e-12 8.12361e-13 7.5132446e-13 7.950878e-13 1.4124877e-12 1.3250055e-12 7.6986036e-13 4.3652638e-13
5.670318e-13 1.2536177e-12 1.1997474e-12 4.173465e-13 4.6638366e-13 5.504251e-13 8.959536e-13 8.8598904e-13
3.9684185e-13 4.749453e-13 4.6806303e-13 6.659779e-13 6.929009e-13 1.2004614e-12 2.0439989e-12 1.1839114e-12
1.7184328e-12 9.876066e-13 1.6741719e-12 1.4780875e-12 2.1178627e-12 1.1348475e-12 2.3443623e-12 1.066881e-12
2.0660108e-12 1.5108963e-12 2.9229323e-12 8.9503914e-13 1.4426441e-12 1.4865942e-12 3.291698e-12 1.0138957e-12
1.5874624e-12 1.1280004e-12 2.505759e-12 1.1845632e-12 1.5157706e-12 1.0690239e-12 2.7996897e-12 4.892812e-12
3.7054513e-12 8.017273e-12 5.0082503e-12 4.1275087e-12 3.2277234e-12 8.939402e-12 5.77448e-12 5.323178e-12
2.9183767e-12 8.440337e-12 5.1377804e-12 5.909507e-12 3.545775e-12 6.542775e-12 4.1758155e-12 5.5611904e-12
3.3430912e-12 5.2184355e-12 3.1542967e-12 4.9282583e-12 2.810476e-12 5.5120236e-12 3.0287747e-12 6.8818703e-13
1.5747375e-13 1.1926097e-12 2.0186076e-13 5.2536285e-13 9.6171104e-14 1.4224195e-12 1.3690538e-13 8.4464353e-13
1.5270153e-13 1.4214469e-12 3.95301e-13 1.3604429e-12 1.0554256e-13 6.131226e-13 1.9536735e-13 1.7145652e-12
5.6750785e-13 8.916119e-13 1.8228156e-13 1.1024607e-12 4.1591112e-13 1.2551639e-12 1.5380283e-13 3.5184228e-13
5.928598e-13 4.998323e-13 8.4625454e-13 6.5110054e-13 1.078974e-12 4.3458496e-13 5.968389e-13 5.067388e-13
1.2916651e-12 5.566868e-13 4.7937636e-13 3.9517537e-13 1.3260153e-12 5.948458e-13 7.6988014e-13 3.01042e-13
1.0525838e-12 4.576954e-13 7.7785077e-13 4.7921834e-13 7.5635147e-13 3.5985052e-13 7.5441774e-13 5.0264843e-13
6.751078e-13 2.98412e-12 2.8155455e-12 2.852419e-12 3.3713308e-12 3.7765767e-12 3.0792944e-12 3.0641433e-12
3.2850309e-12 4.4605257e-12 4.100067e-12 2.9904826e-12 3.2817984e-12 3.792156e-12 4.460109e-12 3.920137e-12
3.0291073e-12 3.2710583e-12 3.4706675e-12 3.8805404e-12 3.548635e-12 2.7147917e-12 2.7050005e-12 2.9651188e-12
3.117266e-12 3.065773e-12 2.199971e-12 3.532012e-12 2.2686434e-12 2.40918e-12 1.9036558e-12 3.2150556e-12
00000000: e044 332b 4161 642b 9fe3 6c2b 06dd 4c2b
00000010: 3523 8e2b 88ec 482b 38a6 7e2b 4c70 852b
00000020: 77ef b42b ee1e 2f2b b7ca 392b dd56 902b
00000030: 69e9 e72b 0196 3f2b 2520 5c2b 50ea 2d2b
00000040: dbd4 ac2b b080 8f2b ba74 812b e1fe d72a
00000050: 2d52 492b a00e 7a2b 8dcf 8f2b cc47 f82a
00000060: cd25 6a2b fb87 412b 0cc5 412b 03f7 a52b
00000070: 16c0 942b 28e4 0b2b 061a e42a c371 d72b
00000080: 0b1d 812b d1cb 702b 9498 642b 817f ae2b
00000090: 1623 792b 044e cb2b cef3 662b 512e 432b
000000a0: 48f1 222b cf79 e62b 5848 6d2b 6746 a12b
000000b0: 416f 3b2b 401e af2b da88 212b 30bb b52b
000000c0: 3a99 372b a6d6 082b 0caf fb2a ae69 742b
000000d0: fb1e a72b 88e0 a22b a905 812b 0785 252b
000000e0: db8a 8e2b be3f cf2b 6d2e c62b 0d8c 672b
000000f0: eecb 412b feb0 d12b 2151 eb2b d9ad 802b
00000100: 6c45 b22b 2db8 802b efc1 9d2b 7e5f 912b
00000110: 75b7 e82b 0529 2a2b e835 482b b832 712b
00000120: 3ee1 e32b 30ff 362b 8916 642b 4ce8 252b
00000130: 0eb3 822b 816c 632b e2dc 172b 24de 8c2a
00000140: 685d 442b a390 c52b 2f5f 5d2b 233f df2a
00000150: 5217 c62a 029c 8b2b 84be 672b 0e82 e82a
00000160: 6457 ca2a 42e4 b52a 051f 0c2b f4ff 102b
00000170: 098a e62a 7392 eb2a 8d8d eb2a 961b dd2a
00000180: 84a8 fa2a 8679 c42a 646b 042b a1ee 3d2a
00000190: 9a8f 4b2b f385 762b ea18 462b c7d1 8a2b
000001a0: 9603 922b c7a8 642b a27a 532b 1dcc 5f2b
000001b0: 3cca c62b 5b7a ba2b 49b2 582b 15be f52a
000001c0: f29a 1f2b 566e b02b 75d9 a82b f8f1 ea2a
000001d0: 7c46 032b 4fee 1a2b 4330 7c2b 3d62 792b
000001e0: f066 df2a 6aaf 052b 7fbf 032b c474 3b2b
000001f0: c608 432b 2ef3 a82b 69d5 0f2c e79e a62b
00000200: 11d9 f12b 47fe 8a2b 669e eb2b b705 d02b
00000210: 0608 152c 31b7 9f2b 47f8 242c 7026 962b
00000220: f161 112c c7a3 d42b deae 4d2c 5eee 7b2b
00000230: bb08 cb2b 3338 d12b f6a1 672c 71b1 8e2b
00000240: 5c6a df2b 7fc0 9e2b be53 302c 63b6 a62b
00000250: 6453 d52b a573 962b ba02 452c 8826 ac2c
00000260: bd5f 822c 960a 0d2d 4f36 b02c 4b39 912c
00000270: 7f21 632c 7d43 1d2d e42b cb2c ed4a bb2c
00000280: cd5c 4d2c e67b 142d 03c5 b42c 1bec cf2c
00000290: 0183 792c 1434 e62c 67ec 922c c0aa c32c
000002a0: c73f 6b2c 7d9b b72c c2f6 5d2c ce65 ad2c
000002b0: 09c5 452c e5ef c12c 8e21 552c 1ab5 412b
000002c0: b84c 312a 4bd8 a72b 6746 632a 62e0 132b
000002d0: de8e d829 1030 c82b 4a24 1a2a fbbe 6d2b
000002e0: 38ed 2b2a 060d c82b e188 de2a 1f77 bf2b
000002f0: 25a9 ed29 2494 2c2b cef6 5b2a b94d f12b
00000300: 40bd 1f2b 69f7 7a2b 153b 4d2a 5528 9b2b
00000310: 1c23 ea2a 0ca6 b02b a62a 2d2a d111 c62a
00000320: 0de0 262b b7b0 0c2b 1133 6e2b bd44 372b
00000330: 23da 972b 4ba6 f42a c6fe 272b 61a2 0e2b
00000340: 24c9 b52b 83b1 1c2b b5ee 062b c676 de2a
00000350: bc9e ba2b 286f 272b b6b3 582b b978 a92a
00000360: 5423 942b 6ed4 002b 0ef2 5a2b 52e3 062b
00000370: dee4 542b ed93 ca2a 8759 542b a37b 0d2b
00000380: a506 3e2b 20fd 512c 5c20 462c 9db8 482c
00000390: 7f3c 6d2c 61e0 842c a3af 582c b39e 572c
000003a0: db29 672c d8f0 9c2c 1f42 902c bf6f 522c
000003b0: a0ef 662c b46c 852c 17ed 9c2c 74ed 892c
000003c0: 8c27 552c 262e 662c fd39 742c cd88 882c
000003d0: 86b6 792c 5709 3f2c f558 3e2c d5a6 502c
000003e0: ac5b 5b2c 0ebc 572c 28cf 1a2c 128b 782c
000003f0: 3fa4 1f2c ee87 292c 37f5 052c 4b3d 622c

exp_avg f4 [16]
-5.179541e-07 -2.0758999e-07 4.3076787e-07 -6.65436e-07 2.3999357e-07 -6.0855015e-08 4.26624e-08 3.3884467e-07
7.294012e-07 -8.2110525e-08 -8.408933e-08 -1.1122217e-07 -6.830621e-09 1.4062046e-07 -8.943654e-07 1.680953e-07
00000000: 8909 0bb5 e7e5 5eb4 4944 e734 6aa0 32b5
00000010: 77d8 8034 66af 82b3 ce3b 3733 75ea b534
00000020: 12cc 4335 bd54 b0b3 9994 b4b3 09d9 eeb3
00000030: c7b2 eab1 75fd 1634 5314 70b5 af7d 3434

exp_avg_sq f4 [16]
6.017956e-11 1.72964e-12 1.203668e-11 2.462352e-10 4.6357775e-11 3.939547e-12 9.372183e-12 2.5647264e-11
2.5061068e-11 1.9477757e-12 6.612443e-12 5.552565e-12 2.1897922e-12 7.7065585e-12 4.589333e-10 2.670354e-11
00000000: 1556 842e d96c f32b 63c0 532d 865e 872f
00000010: 37e2 4b2e 499c 8a2c 8fe0 242d 8198 e12d
00000020: 8270 dc2d 0210 092c 97a7 e82c 0f5d c32c
00000030: ca17 1a2c 4193 072d 1f4d fc2f 07e3 ea2d

exp_avg f4 [16, 16, 5, 5]
3.851203e-08 3.7211375e-08 5.155533e-08 4.8734623e-08 3.7750127e-08 2.345407e-08 1.5405002e-08 4.64038e-08
7.830825e-08 5.60755e-08 2.3461197e-08 1.0058624e-08 2.0463812e-08 6.673542e-08 7.769938e-08 2.1769555e-08
8.458552e-09 -1.7110616e-10 4.668559e-08 7.4127634e-08 2.1327761e-08 3.9949337e-09 -8.883184e-09 1.514419e-08
5.4493654e-08 -1.3539238e-08 -1.4700539e-08 -1.9425727e-08 -1.5087853e-08 -8.425582e-09 -1.41551695e-08 -1.4297315e-08
-9.821265e-09 -3.0456857e-08 -3.6832347e-08 4.071025e-09 -3.2327003e-09 -8.138013e-10 -1.6518065e-08 -3.9875438e-08
1.1863032e-08 8.623544e-09 3.3590448e-09 1.7165148e-09 -1.494156e-08 4.623142e-09 1.0323852e-08 1.54439e-08
2.0133152e-08 5.612623e-09 2.0260167e-08 1.4357812e-08 1.9471265e-08 1.856864e-08 1.568161e-08 1.2143245e-08
1.716409e-08 3.2360095e-08 1.9270574e-08 1.4538703e-08 8.168503e-09 9.989671e-09 3.9410207e-08 2.3126239e-08
1.2639999e-08 3.18344e-10 -3.0302063e-09 3.242169e-08 2.7089406e-08 1.1109431e-08 -1.4785324e-09 -7.8945295e-09
2.7344273e-08 3.3241907e-08 1.0470066e-08 -1.3290337e-07 -1.6954183e-07 -1.2651462e-07 -7.98513e-08 -6.08168e-08
-1.2322513e-07 -1.5122095e-07 -1.9906823e-07 -1.4834121e-07 -8.376961e-08 -7.39194e-08 -8.174174e-08 -1.386522e-07
-1.8412888e-07 -1.5125875e-07 -5.056073e-08 -3.687578e-08 -6.529112e-08 -1.13508676e-07 -9.2704425e-08 -4.5369124e-08
-2.988811e-08 -1.8657252e-08 -3.376563e-08 -3.8753235e-08 2.033581e-09 -1.0428066e-08 2.0960648e-08 3.4718703e-08
5.717714e-08 -9.431212e-09 5.732962e-10 1.0587913e-08 -8.678589e-09 3.538826e-08 -1.2709762e-08 1.3024338e-08
3.914643e-08 -2.6519356e-08 -2.3474996e-08 1.3275303e-09 3.3056647e-08 8.352438e-08 1.1297355e-08 -3.2587916e-08
3.7722003e-09 4.107385e-08 1.0847627e-07 6.227668e-08 -1.1180541e-08 -5.9717586e-08 -5.885755e-08 -5.790922e-08
-7.392785e-08 -6.4351255e-08 -6.057947e-08 -5.8432974e-08 -4.6541132e-08 -5.7531697e-08 -6.351183e-08 -5.8405917e-08
-4.4556824e-08 -2.5734677e-08 -4.9204587e-08 -6.092759e-08 -5.789923e-08 -4.433892e-08 -1.6183403e-08 -3.830878e-08
-5.4664447e-08 -6.443121e-08 -5.4888226e-08 -1.9487258e-08 -1.8301224e-08 -3.941819e-08 -8.884969e-08 -1.07843164e-07
-9.752749e-08 -8.810944e-08 -9.7962655e-08 -7.366468e-08 -9.728868e-08 -1.070175e-07 -8.85781e-08 -8.037834e-08
-7.203951e-08 -8.6654325e-08 -1.063043e-07 -9.04803e-08 -6.965168e-08 -7.801525e-08 -8.369623e-08 -9.392395e-08
-8.072635e-08 -6.141115e-08 -7.4967076e-08 -7.5698814e-08 -8.2677886e-08 -8.649286e-08 -6.6673415e-08 -4.085255e-08
-7.038865e-08 -4.1993292e-08 -2.56704e-08 -2.7833691e-08 -3.6855983e-08 -6.056165e-08 -4.9237702e-08 -4.817995e-08
-5.3089952e-08 -2.7589223e-08 -3.3475967e-08 -2.7344761e-08 -4.057317e-08 -6.886129e-08 -2.3018474e-08 -1.6717367e-08
4.1370214e-09 -8.957582e-09 -4.3722586e-08 -3.048431e-08 -1.6636077e-08 2.2475671e-08 2.4654286e-08 -1.5857074e-08
2.1238089e-08 -3.110734e-08 -8.4717104e-09 -1.9831368e-09 -1.0768488e-08 1.5952507e-08 -3.7957065e-08 -6.693288e-09
-9.488396e-09 -1.44730485e-08 1.2915191e-08 -4.208674e-08 -6.1478223e-09 1.115889e-08 -1.4203871e-08 5.7531264e-09
-4.0563904e-08 -1.1324583e-08 1.7496028e-08 2.0622644e-09 1.0298956e-09 -3.028809e-08 -1.8432106e-08 8.47139e-09
4.202717e-09 1.03623144e-07 1.0981221e-07 1.4513508e-07 1.3547107e-07 1.167698e-07 8.795428e-08 9.083124e-08
1.4063029e-07 1.3323542e-07 1.1152336e-07 7.674969e-08 7.7964714e-08 1.2563451e-07 1.2362567e-07 9.6671585e-08
7.9835424e-08 7.846016e-08 1.1285376e-07 1.1282742e-07 7.965982e-08 8.2563965e-08 8.2629064e-08 1.0297009e-07
1.1133783e-07 8.425969e-08 -9.697906e-08 -1.095126e-07 -1.1340365e-07 -1.2984324e-07 -9.682492e-08 -9.1239365e-08
00000000: 6d68 2533 57d2 1f33 af6d 5d33 4950 5133
00000010: b422 2233 0c78 c932 f553 8432 854d 4733
00000020: 6a2a a833 aad7 7033 b887 c932 4cce 2c32
00000030: 66c8 af32 2f50 8f33 b0db a633 c2ff ba32
00000040: 1b51 1132 1a22 3caf 5983 4833 1930 9f33
00000050: 3e34 b732 cf43 8931 a89c 18b2 6d16 8232
00000060: 680c 6a33 339a 68b2 a78d 7cb2 a0dd a6b2
00000070: 8a9a 81b2 1ac0 10b2 182f 73b2 42a0 75b2
00000080: 61ba 28b2 abcf 02b3 9831 1eb3 1de1 8b31
00000090: 4426 5eb1 2db2 5fb0 9ce3 8db2 8243 2bb3
000000a0: 2bce 4b32 bf26 1432 f1d4 6631 7fea eb30
000000b0: d758 80b2 96d9 9e31 c85c 3132 7fa9 8432
000000c0: 45f1 ac32 27d9 c031 9408 ae32 53aa 7632
000000d0: c441 a732 df80 9f32 3ab4 8632 8e9e 5032
000000e0: 3c70 9332 4dfc 0a33 7188 a532 e4c5 7932
000000f0: 7555 0c32 0a9f 2b32 fb43 2933 23a7 c632
00000100: 4e27 5932 ef02 af2f f43b 50b1 0640 0b33
00000110: 3cb2 e832 cbdb 3e32 3c35 cbb0 82a0 07b2
00000120: b1e2 ea32 ddc5 0e33 d6df 3332 33b4 0eb4
00000130: 4e0b 36b4 13d8 07b4 b77a abb3 649a 82b3
00000140: de4f 04b4 4c5f 22b4 75bf 55b4 b947 1fb4
00000150: d5e4 b3b3 9fbd 9eb3 ff89 afb3 6de0 14b4
00000160: f6b4 45b4 b069 22b4 1c28 59b3 5961 1eb3
00000170: 2c36 8cb3 0ec2 f3b3 cc14 c7b3 e1db 42b3
00000180: 535e 00b3 bb43 a0b2 b405 11b3 a271 26b3
00000190: 23bf 0b31 1f27 33b2 f40c b432 9e1d 1533
000001a0: ee92 7533 e906 22b2 2296 1d30 22e6 3532
000001b0: d718 15b2 cefd 1733 205a 5ab2 a5c1 5f32
000001c0: f421 2833 aecc e3b2 10a6 c9b2 5274 b630
000001d0: 2bfa 0d33 035e b333 4b16 4232 cbf6 0bb3
000001e0: a09c 8131 2d69 3033 76f3 e833 f8bc 8533
000001f0: 8a14 40b2 173e 80b3 90ca 7cb3 dcb7 78b3
00000200: 44c2 9eb3 7a31 8ab3 ea17 82b3 bcf7 7ab3
00000210: 84e4 47b3 c518 77b3 ff63 88b3 fcd9 7ab3
00000220: bf5e 3fb3 270f ddb2 0455 53b3 4cd7 82b3
00000230: e0ac 78b3 286f 3eb3 ae03 8bb2 f388 24b3
00000240: 32c8 6ab3 6f5d 8ab3 3ebe 6bb3 ef64 a7b2
00000250: d134 9db2 c24c 29b3 a2cd beb3 6897 e7b3
00000260: 4e70 d1b3 ad36 bdb3 8a5f d2b3 9631 9eb3
00000270: 04ed d0b3 7ed1 e5b3 5338 beb3 769c acb3
00000280: 24b4 9ab3 b816 bab3 6849 e4b3 124e c2b3
00000290: 6b93 95b3 5689 a7b3 7dbc b3b3 3db3 c9b3
000002a0: c85b adb3 23e1 83b3 96fd a0b3 dd8f a2b3
000002b0: a68c b1b3 f4bd b9b3 192e 8fb3 db75 2fb3
000002c0: 9228 97b3 1d5c 34b3 ce81 dcb2 ef16 efb2
000002d0: 954b 1eb3 1f0e 82b3 6d79 53b3 6aee 4eb3
000002e0: 0505 64b3 58fd ecb2 37c7 0fb3 c4e3 eab2
000002f0: ac42 2eb3 e5e0 93b3 29ba c5b2 e199 8fb2
00000300: a025 8e31 dde3 19b2 7ec9 3bb3 daed 02b3
00000310: 1fe7 8eb2 8610 c132 59c7 d332 1336 88b2
00000320: 0d6f b632 e29a 05b3 fa8a 11b2 b647 08b1
00000330: 5000 39b2 ef07 8932 3c06 23b3 c9fa e5b1
00000340: 6802 23b2 24a5 78b2 9ce1 5d32 dcc2 34b3
00000350: d13c d3b1 51b5 3f32 4905 74b2 09ad c531
00000360: 7c38 2eb3 0b8e 42b2 2c4a 9632 bdb7 0d31
00000370: 3b8c 8d30 1b16 02b3 a154 9eb2 9189 1132
00000380: 7d67 9031 6d87 de33 e7d1 eb33 6dd6 1b34
00000390: 0176 1134 e0c2 fa33 60e1 bc33 010f c333
000003a0: 2900 1734 790f 0f34 9e7e ef33 97d1 a433
000003b0: 8e6d a733 27e6 0634 f7bd 0434 c499 cf33
000003c0: fd71 ab33 ee7d a833 035a f233 884b f233
000003d0: 7311 ab33 054e b133 cf71 b133 6820 dd33
000003e0: 9f18 ef33 41f2 b433 cd42 d0b3 302d ebb3
000003f0: 5188 f3b3 0a6b 0bb4 10ee cfb3 5fef c3b3
