models/ellipses/ScaleL2O_ellipse.pth (torch, 243886 bytes, 24 tensors)

conv1.weight f4 [16, 16, 5, 5]
0	0x3d7497c2	0.05971504
1	0x3d160f1b	0.0366355
2	0xbc1bfffd	-0.009521482
3	0x3cda228b	0.0266278
4	0xbcad3ffe	-0.021148678
5	0x3caaccad	0.02084955
6	0xbd0c6666	-0.034277342
7	0x3c2b3814	0.010450382
8	0x3cfe9a63	0.031079477
9	0xbd727c30	-0.059200466
10	0x3d3aed07	0.045636203
11	0x3b85de3f	0.0040853317
12	0x3c16be42	0.009200634
13	0x3c1d8fd4	0.009616811
14	0x3cf43ade	0.029813226
15	0xbc922b7d	-0.017843002
16	0x3cf87c2c	0.030332647
17	0xbca476fd	-0.02007627
18	0xbc402864	-0.01172838
19	0x3ce9e03d	0.028549308
20	0xbd001607	-0.031271007
21	0xbc84cf91	-0.016212257
22	0xbc34186f	-0.010992154
23	0x3d2fdda6	0.04293599
24	0xbd29cd86	-0.041455768
25	0xbcb56c59	-0.02214639
26	0xbca688c9	-0.020328896
27	0xbd39be47	-0.04534748
28	0xbbfc3353	-0.007696548
29	0xbd3121d3	-0.043245148
30	0x3cdaeb3b	0.026723495
31	0xbd8f1987	-0.06987291
32	0x3c8b5df7	0.01701258
33	0x3b1a273b	0.0023521918
34	0xbc95cf1b	-0.018287232
35	0x3c85c5fd	0.01632976
36	0xbc00ba1e	-0.007856874
37	0x3d53d718	0.0517188
38	0x3cacdcf5	0.021101454
39	0xbc768c8f	-0.01504816
40	0x3b8139b5	0.003943647
41	0xbb293428	-0.002581844
42	0x3d0e7f25	0.034789223
43	0x3d28f489	0.041248832
44	0x3cae52e1	0.021279754
45	0xbc95c9da	-0.018284727
46	0x3d0a7b1a	0.033808805
47	0x3b362aed	0.0027796582
48	0x3cc61b8f	0.024183063
49	0xbcb2927c	-0.021798365
50	0xbd0ed4fb	-0.034871083
51	0xbc784efd	-0.015155551
52	0xbd51fc88	-0.051266223
53	0x3d1e765e	0.038687102
54	0x3cbcd2d1	0.023049744
55	0x3cdc138d	0.026864791
56	0x39f74409	0.000471622
57	0xbba2fca4	-0.0049739648
58	0x3d47ed50	0.048810303
59	0xbcda65e8	-0.02665992
60	0xbba54330	-0.0050434098
61	0xbd549d31	-0.051907722
62	0x3cee25bf	0.029070733
63	0xbc0b63f0	-0.008507714
64	0x3c40cce3	0.011767599
65	0xbc7c0824	-0.0153828
66	0x3d392a81	0.04520655
67	0xbc99d6b5	-0.018779138
68	0xbd186670	-0.037207067
69	0xbd16cfd4	-0.036819294
70	0x3d4db06e	0.050217085
71	0x3cc43083	0.023948913
72	0x3d2b1e68	0.041777045
73	0xbd28364b	-0.041067403
74	0xbd330824	-0.043708935
75	0xbd41f561	-0.047353152
76	0x3bcc21cb	0.0062296144
77	0x3d4ef4a6	0.050526284
78	0x3cbb17ca	0.022838492
79	0x3cdef12f	0.027214615
80	0xbc537e70	-0.012908563
81	0x3cbadfff	0.022811888
82	0x3d89ad95	0.06722561
83	0xbc979362	-0.018502895
84	0x3cd06d81	0.02544284
85	0x3caf33a1	0.021386923
86	0x3dacea41	0.08443118
87	0xbcea294e	-0.028584149
88	0xbcdf0e08	-0.02722837
89	0x3cf11097	0.029426856
90	0x3d084eae	0.03327816
91	0xbc31fd33	-0.01086359
92	0x3baf2de1	0.0053460454
93	0x3c6a3c1d	0.014296559
94	0xbd110ca4	-0.035412446
95	0xbcddeb31	-0.027089687
96	0x3d300765	0.042975802
97	0xbc6399e0	-0.013891667
98	0xbc4f04ec	-0.012635451
99	0xbd5f840b	-0.054569285
100	0xbca7fe4e	-0.020507004
101	0x3c744ba6	0.014910614
102	0x3d835ac9	0.064138
103	0xbcde4d62	-0.027136508
104	0x3c2ae963	0.01043162
105	0xbd382f75	-0.044967134
106	0xbd5b5194	-0.053544596
107	0xbca6745a	-0.020319153
108	0xbe1b3da6	-0.15160236
109	0xbd47dd33	-0.048794936
110	0x3d0774b0	0.033070266
111	0x3be4b313	0.006979355
112	0x3c98c970	0.01865074
113	0xbdc5ecbf	-0.09664296
114	0xbd4ee106	-0.050507568
115	0x3bbb6449	0.005718742
116	0x3d24ff70	0.040282667
117	0xbc9ddac5	-0.019269357
118	0xbc4e17ad	-0.012578887
119	0xbc81b70c	-0.015834354
120	0x3c2f6504	0.010705236
121	0xbc98df8a	-0.01866128
122	0xbc952351	-0.018205317
123	0xbd12397f	-0.035699364
124	0xbc603327	-0.013684071
125	0xbd418631	-0.047247116
126	0xbc85eb83	-0.016347652
127	0xbd3bbb1e	-0.045832746
128	0x3d0b91f4	0.03407474
129	0xbc7738f4	-0.015089262
130	0x3d25a1fd	0.040437687
131	0x3b804ba8	0.003915269
132	0xbd46b190	-0.04850918
133	0x3d51fde4	0.05126752
134	0xbbf21d56	-0.007388751
135	0xbd227781	-0.03966475
136	0xbd3f250a	-0.046666183
137	0xbcfac843	-0.03061307
138	0x3cd7337c	0.026269667
139	0x3bc83fa7	0.0061111036
140	0x3c4d983b	0.012548502
141	0xbcb7654a	-0.022387166
142	0x3d4eb6a9	0.050467167
143	0xbd44b8ff	-0.04802799
144	0xbc9c6238	-0.019089803
145	0x3c83bacc	0.016080283
146	0x3cf0cac7	0.029393567
147	0x3cf05d5d	0.029341394
148	0x3d19e8f3	0.037575673
149	0xbd14c895	-0.036324102
150	0xbcb0cd20	-0.021582186
151	0xbd17f624	-0.037099972
152	0xbc1af049	-0.0094567025
153	0xbcd45a93	-0.025922095
154	0x3d49b816	0.049247824
155	0xbd47d885	-0.048790473
156	0x3ce0bdcd	0.027434254
157	0x3cf6c521	0.030123295
158	0x3d233847	0.039848592
159	0xbce9c9a5	-0.028538534
160	0x3d31a885	0.043373603
161	0x3ce3fe2f	0.027831165
162	0x3ceef6fe	0.02917051
163	0xbd429717	-0.04750737
164	0x3c70dede	0.014701573
165	0xbaa33ada	-0.0012453452
166	0xbc53c8a6	-0.012926256
167	0x3d17650d	0.036961604
168	0x3b49811c	0.0030747121
169	0xbcc71aee	-0.024304833
170	0xbc8e65e9	-0.017382579
171	0xbbf7e77c	-0.007565437
172	0x3cc52bb5	0.024068693
173	0xbc26ec26	-0.010188138
174	0xbcfe9da4	-0.031081028
175	0xbc941938	-0.018078431
176	0xbdb9b050	-0.09066832
177	0x3c2957fd	0.010335919
178	0x3cd4cdeb	0.025977096
179	0xbd18b03b	-0.03727744
180	0xbe1a64f3	-0.15077572
181	0xba5c0f65	-0.0008394628
182	0xbd565e89	-0.05233625
183	0xbcfacdd2	-0.03061572
184	0x3b05616d	0.002035226
185	0x3c252681	0.010079981
186	0xbbb04cc3	-0.0053802445
187	0x3b8091c7	0.003923628
188	0xbc95c9ff	-0.018284796
189	0xbb0f125b	-0.002183101
190	0xbc17c03a	-0.009262139
191	0xbb2f7aca	-0.002677607
192	0x3d90c9f0	0.070697665
193	0x3d2ff86e	0.04296153
194	0xbb5a9c32	-0.003335726
195	0xbbe610ba	-0.007021037
196	0x3bf2b86d	0.007407239
197	0xbc22dc99	-0.00994029
198	0x3c942802	0.018085483
199	0x3cbdf511	0.023188146
200	0xbd1a4f86	-0.037673496
201	0xbc086d45	-0.008326833
202	0x3d57740c	0.052600905
203	0xbb46b81b	-0.0030322138
204	0xbc2281a5	-0.009918605
205	0xbd254358	-0.040347427
206	0xbcd5aa08	-0.026082054
207	0xbd9d76f6	-0.076887056
208	0xbd083969	-0.033257876
209	0xbbb62033	-0.0055580377
210	0x3d5f2dcc	0.054487035
211	0x3d882abe	0.066487774
212	0xbd347d1f	-0.044064637
213	0x3c29d927	0.010366715
214	0x3c0d7fe7	0.008636451
215	0x3d53258a	0.051549472
216	0xbb20a291	-0.002451096
217	0xbcdcf497	-0.026972098
218	0x3cbf5434	0.02335558
219	0xbcaf8799	-0.021426963
220	0xbcf81e75	-0.03028796
221	0x3d4fb82d	0.050712753
222	0xbc3340f6	-0.010940781
223	0xbbb0d437	-0.0053963917
224	0xbd2bfccc	-0.041989133
225	0x3d9bcca3	0.07607391
226	0x3db1726b	0.086644016
227	0x3d6d008c	0.05786185
228	0xbcb19428	-0.021677092
229	0xbd3de28d	-0.046358634
230	0x3a54c05c	0.0008115822
231	0x3d718602	0.05896569
232	0x3d82d4b0	0.06388223
233	0x3ce4f25b	0.027947595
234	0x3cd514dd	0.026010925
235	0x3caa5a2c	0.02079495
236	0xbce8a7e0	-0.028400362
237	0xbd85b7f5	-0.06529228
238	0xbddf8260	-0.10913539
239	0xbd672d83	-0.056439888
240	0x3ce4cfb7	0.027931077
241	0xbcd4b616	-0.025965732
242	0xbc3cc934	-0.01152258
243	0xbccde8f5	-0.025135497
244	0xba623ece	-0.00086305744
245	0xbd0460b7	-0.032318797
246	0xbce55a2b	-0.027997097
247	0x3c3a12aa	0.011356989
248	0xbbe2b15c	-0.0069181155
249	0x3d2900e7	0.041260626
250	0xbd68c966	-0.056832694
251	0xbd28f865	-0.041252512
252	0xbd170e3b	-0.036878806
253	0xbd04ecb3	-0.032452296
254	0xbc8d11c5	-0.017220387
255	0xbd72498f	-0.059152182

conv1.bias f4 [16]
0	0x3bc4b23b	0.006002692
1	0x3b2f718c	0.002677056
2	0x3cb43e3b	0.02200233
3	0xbbdc0b1b	-0.006715191
4	0x3c5972c2	0.013271989
5	0x39d792f3	0.0004111748
6	0x3cbbb335	0.022912601
7	0xbc06123a	-0.0081830565
8	0x3b6aa2d9	0.0035802631
9	0xbcadf32c	-0.021234117
10	0xbbdebe4f	-0.006797589
11	0xbcdcb59a	-0.026942063
12	0x3c69565c	0.014241781
13	0xbd0fda7b	-0.03512047
14	0xbc6c0678	-0.014405839
15	0xbd261be8	-0.040553957

conv2.weight f4 [16, 16, 5, 5]
0	0xbbd10faf	-0.0063800435
1	0xbc7bffd8	-0.015380822
2	0xbbdda0a3	-0.006763534
3	0x3cf4ae08	0.02986814
4	0xbd42fd68	-0.04760495
5	0xbb864560	-0.0040976256
6	0xbc4981f4	-0.01229905
7	0xbc882c85	-0.016622791
8	0x3d346593	0.04404218
9	0x3cae9dad	0.02131542
10	0x3cab3ace	0.020902064
11	0x3c37ebdd	0.011225668
12	0x3cc7aa1c	0.024373107
13	0xbc9f26ba	-0.019427646
14	0xbd03b3f0	-0.032154024
15	0x3d466bf8	0.04844281
16	0xbc48582b	-0.012228052
17	0x3c180951	0.009279565
18	0xba56a249	-0.00081876345
19	0x3d3668f9	0.044533703
20	0x3d08d9e9	0.03341094
21	0xbd2f7533	-0.04283638
22	0x3bc0e43c	0.0058865827
23	0xbd207b9b	-0.03918038
24	0x3cab05d3	0.0208768
25	0x3d6e492d	0.058175255
26	0xbc4676cb	-0.012113283
27	0x3b8a5569	0.0042216075
28	0xbc7ffaf3	-0.015623796
29	0xbb1d0843	-0.0023961223
30	0x3d3b47f8	0.04572293
31	0xbd55edbc	-0.052228674
32	0xbc38bf38	-0.011276059
33	0x3b945336	0.004526521
34	0xbd23b4cc	-0.039967343
35	0x3c6a9dcb	0.014319847
36	0x3cdd89ca	0.027043242
37	0xbd053208	-0.032518417
38	0x3cd250ed	0.025673354
39	0xbc358ba4	-0.011080656
40	0x3d2e98b1	0.042626087
41	0xbd23cbb4	-0.03998919
42	0x3d3dca4b	0.0463355
43	0xbcd658b6	-0.026165348
44	0x3d18c0e8	0.037293345
45	0xbca86cb1	-0.02055964
46	0x3c771486	0.015080577
47	0x3be3493d	0.006936221
48	0x3cc7cc28	0.024389341
49	0x3ce3fa85	0.027829418
50	0x3d0b8e46	0.03407123
51	0xbb76cb2e	-0.0037657726
52	0xbd3bc583	-0.04584266
53	0xbb9388fa	-0.004502413
54	0x3d573c41	0.052547697
55	0x3d40a096	0.047028147
56	0xbd137684	-0.036001697
57	0x3d02a637	0.031896796
58	0x3ce69ff2	0.02815244
59	0xbb88f4b0	-0.0041795596
60	0x3cbdca01	0.023167612
61	0xbc0f4591	-0.008744613
62	0x3c69055b	0.014222468
63	0xbcdb2696	-0.026751798
64	0xbc256484	-0.010094766
65	0x3d3a82ee	0.04553502
66	0x3d1f259c	0.038854226
67	0xbd117ccd	-0.03551941
68	0xbc01bd87	-0.007918722
69	0x3ce7db1e	0.028302725
70	0xbc816b33	-0.015798187
71	0x3aef28e8	0.0018246444
72	0x3c98b446	0.018640649
73	0x3d21a032	0.039459415
74	0x3d4dce44	0.05024554
75	0xbd11f0ea	-0.035630144
76	0xbd3075c6	-0.043081068
77	0x3ce84a96	0.028355878
78	0xbc08f606	-0.008359438
79	0x3d200976	0.039071523
80	0x3cd94b9d	0.026525313
81	0xbc9cdcf1	-0.019148322
82	0x3c949aab	0.018140158
83	0x3b864384	0.004097404
84	0xbce267ae	-0.027637329
85	0x3d609489	0.054829154
86	0x3b8a88f4	0.004227752
87	0xbcef3bed	-0.02920338
88	0xbd4c5a09	-0.04989055
89	0x3d426b6e	0.047465734
90	0xbd2fc036	-0.042907916
91	0x3d131743	0.035910856
92	0xbcc081ad	-0.023499334
93	0xbc3b7f85	-0.011443977
94	0x3c83b60f	0.016078023
95	0x3d1f8843	0.03894831
96	0xbd267ed7	-0.040648308
97	0xbcc96772	-0.02458546
98	0x3d1c8822	0.038215764
99	0xbcebf9f8	-0.028805718
100	0xbc7a23bc	-0.015267309
101	0x3c8df956	0.017330807
102	0xbd1a9fa0	-0.037749887
103	0x3d11602f	0.03549212
104	0xbc95de9e	-0.018294629
105	0x3d2234fe	0.03960132
106	0x3d4cd080	0.05000353
107	0x3c8b3296	0.016991895
108	0xbcb78096	-0.022400182
109	0x3d1f3403	0.03886796
110	0x388f5909	6.8353555e-05
111	0xbc320a02	-0.010866644
112	0x3d4a8d1a	0.04945097
113	0xbbec5b44	-0.007213028
114	0x3c9a4146	0.018829953
115	0xbb952513	-0.0045515387
116	0xbc4e7f26	-0.012603557
117	0xbc6944df	-0.014237612
118	0x3c20eb3e	0.009821711
119	0x3cddfc50	0.027097851
120	0x3d4a921b	0.049455743
121	0x3d0996c3	0.033591043
122	0xbd0641ba	-0.032777525
123	0x3d250c8e	0.040295176
124	0x3d005897	0.031334486
125	0x3c2c4a87	0.010515816
126	0x3c64b9ec	0.013960343
127	0xbca61981	-0.020275833
128	0xbd1a2cac	-0.03764026
129	0xbc256173	-0.0100940345
130	0xbd023ac7	-0.031794336
131	0x3c7383e0	0.014862984
132	0xbd5537d2	-0.052055188
133	0xbd2d8b67	-0.042369273
134	0xbc98dd93	-0.018660342
135	0x3d085126	0.033280514
136	0x3d0c30ec	0.034226343
137	0xbd491229	-0.049089584
138	0xbcf72eb7	-0.030173643
139	0x3c2cb7f4	0.010541905
140	0xbc8e3ac4	-0.017362006
141	0xbd2c7f25	-0.042113442
142	0x3ca81d58	0.020521805
143	0xbd8788ab	-0.06617864
144	0xbbea58a0	-0.007151678
145	0x3c99f624	0.018794127
146	0x3d4633cc	0.04838924
147	0xbd7def5b	-0.061995845
148	0x3d1127d0	0.03543836
149	0x3c081fc2	0.008308353
150	0x3d3e8cf9	0.04652116
151	0x3d2b3bc7	0.041805055
152	0xbc816338	-0.015794381
153	0xbaa11a8b	-0.0012291236
154	0xbc44a14c	-0.012001347
155	0x3d0f81cc	0.035035893
156	0xbcd933a0	-0.026513875
157	0x3d0d1d78	0.03445193
158	0x3cbe6d4f	0.023245482
159	0x3d2e60a3	0.04257263
160	0x3cde8367	0.027162267
161	0x3d459ebf	0.048247095
162	0xbd1c5959	-0.038171146
163	0xbd183aea	-0.03716556
164	0xbd3c1b57	-0.04592451
165	0x3ce6a9cc	0.028157137
166	0x3c2f705a	0.010707939
167	0x3c580838	0.013185553
168	0x3c772e8e	0.015086783
169	0x3ba0f3ff	0.004911899
170	0x3cd1abe5	0.025594661
171	0xbd0fadd3	-0.03507788
172	0x3cc0f034	0.023552038
173	0xbd1e8922	-0.038705
174	0xbd1e3ad6	-0.03863033
175	0x3cda0692	0.026614461
176	0x3d55872e	0.05213087
177	0xbcc52ff2	-0.024070714
178	0x3d44b2bb	0.048022013
179	0xbbc2138e	-0.0059227413
180	0xbcbc5b22	-0.022992674
181	0xbc0bd3c1	-0.008534373
182	0x3d16a413	0.036777567
183	0xbccf6222	-0.025315348
184	0x3d7ede94	0.062223986
185	0xbce40e0f	-0.027838735
186	0xbcbb67fe	-0.022876736
187	0xbc2ea4fa	-0.010659451
188	0xbcbaf1fc	-0.022820465
189	0x3d1ae039	0.03781149
190	0xbce095b6	-0.027415138
191	0xbc96f248	-0.018426076
192	0xbcb64a1a	-0.022252131
193	0x3d24160d	0.04006009
194	0x3c97f76a	0.018550593
195	0x3cdd1869	0.026989179
196	0xbba75886	-0.0051069884
197	0x3c80c487	0.015718712
198	0xbb1eca73	-0.0024229556
199	0x3d328eb9	0.043593142
200	0x3c574c55	0.013140758
201	0x3cd5d82a	0.026104052
202	0x3d254c87	0.040356185
203	0x3c492af5	0.012278308
204	0xbd738f46	-0.059462808
205	0x3c130def	0.00897549
206	0xbd0b1500	-0.033955574
207	0xbb9e9ddf	-0.004840597
208	0xbc9fe374	-0.019517638
209	0x3d289fdb	0.041168075
210	0xbd12bd91	-0.035825316
211	0xbd198acb	-0.03748588
212	0x3c83a8fa	0.016071785
213	0x3cf70c2d	0.030157173
214	0xbb3d82a0	-0.002891697
215	0x3cabebe3	0.020986503
216	0x3cfc8e53	0.030829584
217	0x3c7c3de1	0.015395612
218	0x3b0e16fd	0.0021681183
219	0x3d83cd0d	0.06435595
220	0x3d439e6a	0.047758497
221	0x3bc0927f	0.0058768387
222	0x3d3b6ddc	0.045759067
223	0x3c45a108	0.012062319
224	0xbbe5169b	-0.00699122
225	0xbbadeea5	-0.0053079897
226	0xbd27fd64	-0.041013137
227	0x3d05adc8	0.032636434
228	0xbceeff49	-0.029174464
229	0xbd2e2c3b	-0.04252265
230	0x3ccc4fc1	0.024940373
231	0xbca56d6c	-0.020193778
232	0xbcb69942	-0.022289876
233	0x3b9020f0	0.0043984577
234	0x3b03e49d	0.0020125278
235	0x3d234d5b	0.039868694
236	0x3d00ab5c	0.03141342
237	0xbb564572	-0.0032695201
238	0x3c1901e9	0.009338834
239	0x3b602f9f	0.0034208072
240	0x3d426a6c	0.047464773
241	0x3d3bc303	0.045840275
242	0x3d07173b	0.03298114
243	0xbcc79faa	-0.024368126
244	0x3d26aaff	0.04069042
245	0x3ce41062	0.027839843
246	0xbd4803f8	-0.04883191
247	0x3d375555	0.044759113
248	0x3c500056	0.012695393
249	0x3cba27fd	0.022724146
250	0x3d4a761a	0.049429037
251	0x3d2999f1	0.041406576
252	0x3d18014d	0.037110616
253	0xbd5f7908	-0.054558784
254	0x3d483121	0.048874978
255	0x3c69e3f7	0.014275542

conv2.bias f4 [16]
0	0xbd850d3a	-0.064966634
1	0x3bec0421	0.0072026406
2	0x3caac0ea	0.020843942
3	0xbc8c2c95	-0.017111102
4	0xbd0c4055	-0.03424104
5	0x3c048cbf	0.008090197
6	0x3c0f284d	0.008737636
7	0xbc002348	-0.007820912
8	0x3be7c2fd	0.007072805
9	0x3c71cb91	0.014758007
10	0x3b632719	0.0034660755
11	0xbd938a19	-0.072040744
12	0x3c16aaf4	0.009196032
13	0x3c8576b9	0.016291963
14	0x3c9d493e	0.019199964
15	0x3cacd2c1	0.021096589

conv3.weight f4 [16, 16, 5, 5]
0	0x3cbd27e3	0.023090309
1	0xbc1eb790	-0.009687319
2	0xbc7e2e54	-0.015513975
3	0xbcfb376d	-0.030666078
4	0xbd3b2b68	-0.045695692
5	0xbd2054c5	-0.039143343
6	0xbcc0009f	-0.023437796
7	0x3d65ebae	0.056132965
8	0xbd461c2c	-0.04836671
9	0xbd5fc546	-0.054631494
10	0xbd211df5	-0.03933521
11	0xbc9d690a	-0.019215126
12	0x3d3586ee	0.044318132
13	0xbd8ffd12	-0.07030691
14	0xbd2e847b	-0.042606812
15	0xbd100974	-0.035165265
16	0x3cf1ecfb	0.029531946
17	0x3bb8d667	0.005640793
18	0xbd4d2021	-0.05007947
19	0x3cc17e43	0.023619777
20	0x3bf5ffe5	0.0075073116
21	0xbd340999	-0.043954466
22	0xbb7bd2fc	-0.0038425317
23	0x3cf581ac	0.029969059
24	0xbdaaed60	-0.08346057
25	0xbcfffa56	-0.0312473
26	0xbce351e6	-0.027749013
27	0xbcd7e796	-0.026355546
28	0x3cb9599d	0.022625739
29	0xbd141336	-0.036151133
30	0x3d618952	0.0550626
31	0xbcac2755	-0.021014849
32	0xbbf926b5	-0.007603491
33	0x3c6535d6	0.013989886
34	0x3d44b328	0.04802242
35	0xbc2ce605	-0.010552888
36	0xbce9b49e	-0.028528508
37	0xbd437aaa	-0.047724403
38	0x3d04abce	0.03239041
39	0x39cc7c56	0.0003900255
40	0x3c52224c	0.01282556
41	0x3d538ae0	0.051646113
42	0xbc94c425	-0.018159935
43	0xbd3bfcbf	-0.045895334
44	0xbb853197	-0.0040647495
45	0x3d099ae4	0.03359498
46	0x3c96d8bf	0.0184139
47	0xbd0ce0c2	-0.034394033
48	0x3cff1866	0.031139564
49	0x3ca6627d	0.020310635
50	0x3ca690b8	0.02033268
51	0x3cbfceb5	0.023413995
52	0xbd891dbf	-0.06695127
53	0xbd553c12	-0.05205924
54	0xbbb09406	-0.0053887395
55	0x3d187972	0.037225194
56	0xbbd73437	-0.006567504
57	0x3c96cc1a	0.01840787
58	0xbd6ef585	-0.058339614
59	0x3d57e78f	0.052711066
60	0xbcc501ee	-0.024048772
61	0xbceabcde	-0.028654512
62	0x3d119fac	0.035552666
63	0xbceaa23d	-0.028641814
64	0xbc8f9e0d	-0.01753142
65	0x3d0058bf	0.031334635
66	0xbceac83d	-0.028659934
67	0x3b8a2c31	0.004216694
68	0xbd2bfe47	-0.041990545
69	0x3aed66b3	0.0018112272
70	0xbcf12c6d	-0.02944013
71	0xbcb1fd86	-0.021727335
72	0xbd1e9e6a	-0.038725294
73	0xbcff647b	-0.031175843
74	0x3d313b08	0.043269187
75	0x3d57379e	0.052543275
76	0xbd4f5a66	-0.05062332
77	0x3cf298f3	0.029613947
78	0x3d445f09	0.047942195
79	0x3d2f2104	0.042756096
80	0x3b7ed5c3	0.0038884736
81	0xbcfeac1a	-0.031087924
82	0x3d3bd842	0.045860536
83	0x3daf35c9	0.085551806
84	0xbb0ba48e	-0.00213078
85	0x3a89f2d9	0.0010524645
86	0x3cbc1adf	0.022962032
87	0xbc86f88a	-0.016475935
88	0x3d63888e	0.05555015
89	0x3d7e54f5	0.06209274
90	0x3c3b210b	0.011421452
91	0xbd611594	-0.05495222
92	0x3d0a25ec	0.03372757
93	0x3cc81d5a	0.024428058
94	0x3d1d65c9	0.038427148
95	0xbb77a14c	-0.003778535
96	0x3a8050dc	0.0009789723
97	0x3d1dfda5	0.038571972
98	0xbc66d32c	-0.014088433
99	0xbd0d0080	-0.034424305
100	0x3d4da1a7	0.05020299
101	0xbaff9c2d	-0.00195015
102	0xbd0733b0	-0.033008277
103	0x3d49045b	0.04907642
104	0xbd4117a9	-0.047141705
105	0x391b401e	0.00014805837
106	0xbc1c314c	-0.009533238
107	0x3d8117e5	0.06303386
108	0xbba37f4c	-0.00498954
109	0xbd57797b	-0.052606087
110	0x3d1fa8e2	0.03897942
111	0x3d69f7d0	0.057121098
112	0x3d298935	0.041390616
113	0x3dc675df	0.09690451
114	0xbd423f7c	-0.047423825
115	0xbd3b78d9	-0.045769546
116	0x3cae6aa6	0.021291088
117	0xbc611cfd	-0.0137398215
118	0x3d3c4578	0.045964688
119	0x3dd31c44	0.103081256
120	0xbc03b74e	-0.008039309
121	0xbd0445ac	-0.032293007
122	0x3d24c64d	0.040228177
123	0xbb9b683e	-0.0047426512
124	0x3d9fc9bf	0.07802152
125	0x3d159f37	0.036528792
126	0xbb85de0f	-0.0040853093
127	0xbce1c720	-0.02756077
128	0x3c4ec41d	0.012619999
129	0xbce45957	-0.027874632
130	0x3c968d70	0.01837799
131	0xbd12f047	-0.035873678
132	0xbcaff691	-0.021479877
133	0x3c88ab8a	0.016683359
134	0x3c45d2c0	0.0120741725
135	0xba35e427	-0.00069385994
136	0x3d59f39c	0.05321084
137	0x3ca73d3a	0.020414937
138	0x3caf5a07	0.021405233
139	0x3cc8bb1b	0.024503281
140	0xbcd72d43	-0.0262667
141	0xbd4c6aeb	-0.049906652
142	0xbd0e82e9	-0.034792814
143	0xbce71be8	-0.028211549
144	0x3c2f7aa9	0.010710397
145	0x3c2ac580	0.010423064
146	0x3d1c8eb1	0.03822202
147	0x3d05025e	0.03247296
148	0x3c8b1ddf	0.016982017
149	0x3d29bec6	0.0414417
150	0x3b6005ae	0.0034183073
151	0x3c99e643	0.018786555
152	0xbd2ac630	-0.041692913
153	0x3d5f4cf5	0.05451675
154	0x3ccaf2f5	0.024774054
155	0xbba7612e	-0.0051080203
156	0xbcb9d85e	-0.02268618
157	0x3bba9052	0.005693474
158	0xbb50b8a5	-0.0031848338
159	0xbcbde015	-0.02317814
160	0xbd25281b	-0.04032145
161	0xbc6d5108	-0.014484651
162	0x3c61c3db	0.013779606
163	0xbd105f79	-0.0352473
164	0x3cbd3d21	0.023100438
165	0xbcf9f59d	-0.030512625
166	0x3cdc7f7b	0.026916256
167	0xbabf9a1f	-0.0014618075
168	0x3882f5a9	6.244641e-05
169	0x3b8a687c	0.0042238813
170	0x3998526c	0.00029053108
171	0x3c338db2	0.010959076
172	0xbc55cdea	-0.013049582
173	0xbc92cbd2	-0.017919455
174	0x3bfa8ab2	0.0076459283
175	0xbce6130f	-0.02808526
176	0x3cb69e06	0.022292148
177	0xba6cbc88	-0.0009030779
178	0x3d4643f6	0.048404656
179	0xbbf07d25	-0.007339137
180	0x3b467fdc	0.0030288612
181	0xbcf98449	-0.030458586
182	0xbd2cce55	-0.04218896
183	0x3ba8e456	0.005154173
184	0x3cfff03e	0.031242486
185	0xbcaf5f69	-0.0214078
186	0x3d0117ba	0.031516768
187	0xbcb78acc	-0.02240505
188	0x3c9e87f4	0.019351937
189	0x3d1c9298	0.03822574
190	0x3d03cbda	0.03217683
191	0x3cffd774	0.031230666
192	0xbc9599ba	-0.01826178
193	0x3d1f5d74	0.038907483
194	0x3d240cc7	0.040051248
195	0xbbebb6e4	-0.007193433
196	0xbc2c2096	-0.010505816
197	0x3c8f659c	0.017504506
198	0x3babb21b	0.0052397377
199	0x3c0dd390	0.008656397
200	0xbb9f690d	-0.004864818
201	0xbccc2d44	-0.024923928
202	0xbccb5b64	-0.024823852
203	0xbc3c5e0c	-0.011497032
204	0xbd8d8141	-0.06909419
205	0x3b8e9015	0.004350672
206	0x3d31e225	0.04342856
207	0x3caa4bf7	0.020788176
208	0x3b8bd19f	0.004266932
209	0x3ac704b6	0.0015183899
210	0xbce8f105	-0.02843524
211	0x3d15585d	0.036461223
212	0x3d0e3f28	0.0347282
213	0x3cad8060	0.021179378
214	0x3ce2bed8	0.027678892
215	0xbd4a1dbb	-0.04934476
216	0xbd5f6e43	-0.054548513
217	0xbc510095	-0.012756486
218	0x3cb6fc57	0.022337122
219	0x3cab9576	0.020945292
220	0xbcf00278	-0.029298052
221	0xbca0609d	-0.019577319
222	0x3d0a91d4	0.03383048
223	0xbc138ed3	-0.00900622
224	0xbb1b30b9	-0.0023680164
225	0xbd379533	-0.04482002
226	0xbb8b69a3	-0.0042545362
227	0x3cc47409	0.023981111
228	0x3d4ff1a3	0.050767552
229	0x3bf2fd7c	0.0074154716
230	0x3d13e72e	0.036109142
231	0x3b10a869	0.0022073037
232	0xbd384023	-0.04498304
233	0x3bb8a841	0.005635292
234	0xbc5b7d23	-0.013396534
235	0xbb13854d	-0.0022509873
236	0xbc8674a9	-0.01641305
237	0x3cdd6cd2	0.027029429
238	0xbd15bc67	-0.036556628
239	0xbccb345d	-0.024805242
240	0xbc3cecb5	-0.011531045
241	0x3d49ac9c	0.04923688
242	0xbc4e5986	-0.012594586
243	0x3cc2e615	0.023791352
244	0x3d003844	0.03130366
245	0x3d5843d0	0.052799046
246	0xbb57f0e7	-0.0032949985
247	0x3c5a66d6	0.013330182
248	0xbcac731c	-0.021050982
249	0x3b15d62f	0.002286326
250	0xbd40e225	-0.04709067
251	0xbd1ef76c	-0.03881018
252	0x3c806bd4	0.015676416
253	0xbd0dfba0	-0.034663796
254	0x3cc323be	0.023820754
255	0x3d2d6f7c	0.042342648

conv3.bias f4 [16]
0	0xbcf6093e	-0.030033704
1	0xbbc827dc	-0.006108267
2	0xbccdbb60	-0.025113761
3	0x3cbb868a	0.022891302
4	0x3cdc029a	0.02685671
5	0x3d02740d	0.031848956
6	0xbb421ca6	-0.0029619127
7	0xbc50c391	-0.012741939
8	0xbcca0b20	-0.024663508
9	0xb9bf241c	-0.00036457262
10	0xbcce80ec	-0.02520796
11	0x3c291c7b	0.010321732
12	0x3c98309f	0.018577872
13	0x3b922376	0.0044597937
14	0x3d1d102c	0.0383455
15	0xba684420	-0.0008860249

convK.weight f4 [16, 1, 3, 3]
0	0x3e96cc8e	0.29452938
1	0xbebf5300	-0.3736801
2	0x3c5e94b4	0.013585258
3	0x3dcc4414	0.09973922
4	0xbd34e264	-0.044161215
5	0xbe040a57	-0.1289457
6	0xbdf17f6b	-0.11791881
7	0x3e4719e5	0.19443472
8	0xbe67817e	-0.22607991
9	0x3d944ad2	0.07240833
10	0x3e18202d	0.14856024
11	0x3e8c1b05	0.27364364
12	0x3c2df53f	0.010617553
13	0x3ea28e34	0.31749117
14	0xbea3e1f2	-0.3200832
15	0xbe512431	-0.20423962
16	0xbe958ae9	-0.29207543
17	0xbba7ac6b	-0.0051169894
18	0xbe44f370	-0.19233489
19	0x3e73ebd6	0.23820433
20	0xbe2ad943	-0.16684441
21	0x3d523cb0	0.051327407
22	0x3e93855e	0.2881269
23	0xbeae5f7f	-0.34057233
24	0x3e147d25	0.14500864
25	0xbe8e4e30	-0.27794027
26	0x3e3a61d3	0.1820138
27	0xbe167950	-0.14694715
28	0xbec16d36	-0.37778634
29	0x3cb1d361	0.021707239
30	0xbb06a87a	-0.0020547197
31	0x3e07aedb	0.13250296
32	0x3e80389d	0.25043193
33	0xbcfce6f0	-0.030871838
34	0xbe0ca90b	-0.1373636
35	0x3edeb499	0.4349716
36	0xbde84432	-0.11341132
37	0x3ea370a3	0.31921872
38	0x3e85e937	0.2615449
39	0xbebbefde	-0.36706442
40	0xbdcdd34f	-0.100500695
41	0x3d49ea43	0.049295675
42	0xbe93352c	-0.28751504
43	0x3d89c4b3	0.067269705
44	0xbdf7c64c	-0.12098369
45	0xbe2d83f7	-0.16944872
46	0x3e7e602e	0.24841377
47	0x3e0c0867	0.1367508
48	0x3eab775e	0.33489507
49	0xbd9245ac	-0.07142195
50	0xbdcb6ee0	-0.09933257
51	0xbe61be36	-0.22045216
52	0x3d26aef1	0.04069418
53	0x3e882693	0.2659193
54	0xbd4816dc	-0.048849925
55	0xbdfe6bc1	-0.12422896
56	0x3e4e3f7e	0.20141408
57	0x3c36dbeb	0.011160831
58	0x3d2f33ad	0.04277389
59	0x3ea09e94	0.31370986
60	0x3ea08dd6	0.31358212
61	0x3ea152c6	0.31508464
62	0xbea2286c	-0.31671464
63	0x3d89a8b3	0.0672163
64	0x3ea2634d	0.31716385
65	0x3e9e74f8	0.30948615
66	0xbea5fd0c	-0.32419622
67	0x3e7d5c2a	0.24742189
68	0xbe1105d9	-0.14162387
69	0xbe3b3414	-0.18281585
70	0xbe4b82da	-0.19874135
71	0xbe2cebf2	-0.16886881
72	0xbdd1c930	-0.102434516
73	0xbbdcebf4	-0.006741995
74	0xbdec956f	-0.1155194
75	0x3e506c35	0.20353778
76	0xbe3e752a	-0.18599382
77	0x3ea4cda1	0.32188132
78	0xbe98d60e	-0.2985081
79	0x3ddec858	0.10878056
80	0xbe55f186	-0.20892915
81	0xbe50b2fb	-0.20380776
82	0x3db1c7e8	0.08680707
83	0xbd534639	-0.05158064
84	0xbe80d8b2	-0.25165325
85	0xbca2cc8f	-0.019872932
86	0xbe62e46b	-0.22157447
87	0xbe6f31fe	-0.23358914
88	0x3e5a805d	0.21338029
89	0x3d60382f	0.05474108
90	0xbdd9ee3d	-0.106411435
91	0x3e8d3881	0.27582172
92	0x3d41c2c0	0.04730487
93	0x3e721205	0.23639686
94	0x3e2ba9af	0.16763948
95	0x3d7506a7	0.059820797
96	0xbe2a1ba3	-0.16612105
97	0xbe246e79	-0.16057767
98	0x3e97306a	0.29529124
99	0x3dbd670d	0.09248171
100	0x3ea6dded	0.3259119
101	0x3e5bba0f	0.21457694
102	0xbcf1786a	-0.029476363
103	0xbea33eea	-0.31883937
104	0x3dfca9d8	0.123370826
105	0xbdb414f3	-0.08793058
106	0x3d204819	0.039131258
107	0xbe17d873	-0.14828663
108	0x3e9dc066	0.3081085
109	0x3ea8d09a	0.3297165
110	0xbe4b9de8	-0.19884455
111	0xbda4cec2	-0.080472484
112	0xbe8474c5	-0.25870338
113	0x3e1e59f1	0.15463997
114	0xbe8027ab	-0.25030264
115	0xbea83084	-0.32849514
116	0xbe8d0c00	-0.27548218
117	0xbe892c22	-0.26791483
118	0x3e802dae	0.2503485
119	0xbe119ed6	-0.14220747
120	0x3e4c7cce	0.19969484
121	0xbdd4ba8b	-0.10387143
122	0xbdcea1ff	-0.10089492
123	0xbdc5624f	-0.096378915
124	0xbe8f7d64	-0.28025353
125	0x3ddaa768	0.106764615
126	0xbdf941bf	-0.12170743
127	0x3dc429c2	0.09578277
128	0xbe9e157e	-0.30875772
129	0x3d9e5179	0.077303834
130	0x3e8c6172	0.27418095
131	0xbdf00b95	-0.11720959
132	0x3da90dec	0.082546085
133	0xbeaf09ad	-0.3418707
134	0xbe12ba29	-0.14328827
135	0x3e99e431	0.3005691
136	0x3e013f0e	0.1262171
137	0x3dd9e6c9	0.10639722
138	0x3e23d8a4	0.1600061
139	0xbd8cc4e9	-0.06873495
140	0xbe2be502	-0.16786578
141	0x3eaa0e66	0.3321411
142	0xbdf161fb	-0.117862664
143	0xbd1c83b5	-0.038211543

convK_T.weight f4 [16, 1, 3, 3]
0	0x3e96cc8e	0.29452938
1	0xbebf5300	-0.3736801
2	0x3c5e94b4	0.013585258
3	0x3dcc4414	0.09973922
4	0xbd34e264	-0.044161215
5	0xbe040a57	-0.1289457
6	0xbdf17f6b	-0.11791881
7	0x3e4719e5	0.19443472
8	0xbe67817e	-0.22607991
9	0x3d944ad2	0.07240833
10	0x3e18202d	0.14856024
11	0x3e8c1b05	0.27364364
12	0x3c2df53f	0.010617553
13	0x3ea28e34	0.31749117
14	0xbea3e1f2	-0.3200832
15	0xbe512431	-0.20423962
16	0xbe958ae9	-0.29207543
17	0xbba7ac6b	-0.0051169894
18	0xbe44f370	-0.19233489
19	0x3e73ebd6	0.23820433
20	0xbe2ad943	-0.16684441
21	0x3d523cb0	0.051327407
22	0x3e93855e	0.2881269
23	0xbeae5f7f	-0.34057233
24	0x3e147d25	0.14500864
25	0xbe8e4e30	-0.27794027
26	0x3e3a61d3	0.1820138
27	0xbe167950	-0.14694715
28	0xbec16d36	-0.37778634
29	0x3cb1d361	0.021707239
30	0xbb06a87a	-0.0020547197
31	0x3e07aedb	0.13250296
32	0x3e80389d	0.25043193
33	0xbcfce6f0	-0.030871838
34	0xbe0ca90b	-0.1373636
35	0x3edeb499	0.4349716
36	0xbde84432	-0.11341132
37	0x3ea370a3	0.31921872
38	0x3e85e937	0.2615449
39	0xbebbefde	-0.36706442
40	0xbdcdd34f	-0.100500695
41	0x3d49ea43	0.049295675
42	0xbe93352c	-0.28751504
43	0x3d89c4b3	0.067269705
44	0xbdf7c64c	-0.12098369
45	0xbe2d83f7	-0.16944872
46	0x3e7e602e	0.24841377
47	0x3e0c0867	0.1367508
48	0x3eab775e	0.33489507
49	0xbd9245ac	-0.07142195
50	0xbdcb6ee0	-0.09933257
51	0xbe61be36	-0.22045216
52	0x3d26aef1	0.04069418
53	0x3e882693	0.2659193
54	0xbd4816dc	-0.048849925
55	0xbdfe6bc1	-0.12422896
56	0x3e4e3f7e	0.20141408
57	0x3c36dbeb	0.011160831
58	0x3d2f33ad	0.04277389
59	0x3ea09e94	0.31370986
60	0x3ea08dd6	0.31358212
61	0x3ea152c6	0.31508464
62	0xbea2286c	-0.31671464
63	0x3d89a8b3	0.0672163
64	0x3ea2634d	0.31716385
65	0x3e9e74f8	0.30948615
66	0xbea5fd0c	-0.32419622
67	0x3e7d5c2a	0.24742189
68	0xbe1105d9	-0.14162387
69	0xbe3b3414	-0.18281585
70	0xbe4b82da	-0.19874135
71	0xbe2cebf2	-0.16886881
72	0xbdd1c930	-0.102434516
73	0xbbdcebf4	-0.006741995
74	0xbdec956f	-0.1155194
75	0x3e506c35	0.20353778
76	0xbe3e752a	-0.18599382
77	0x3ea4cda1	0.32188132
78	0xbe98d60e	-0.2985081
79	0x3ddec858	0.10878056
80	0xbe55f186	-0.20892915
81	0xbe50b2fb	-0.20380776
82	0x3db1c7e8	0.08680707
83	0xbd534639	-0.05158064
84	0xbe80d8b2	-0.25165325
85	0xbca2cc8f	-0.019872932
86	0xbe62e46b	-0.22157447
87	0xbe6f31fe	-0.23358914
88	0x3e5a805d	0.21338029
89	0x3d60382f	0.05474108
90	0xbdd9ee3d	-0.106411435
91	0x3e8d3881	0.27582172
92	0x3d41c2c0	0.04730487
93	0x3e721205	0.23639686
94	0x3e2ba9af	0.16763948
95	0x3d7506a7	0.059820797
96	0xbe2a1ba3	-0.16612105
97	0xbe246e79	-0.16057767
98	0x3e97306a	0.29529124
99	0x3dbd670d	0.09248171
100	0x3ea6dded	0.3259119
101	0x3e5bba0f	0.21457694
102	0xbcf1786a	-0.029476363
103	0xbea33eea	-0.31883937
104	0x3dfca9d8	0.123370826
105	0xbdb414f3	-0.08793058
106	0x3d204819	0.039131258
107	0xbe17d873	-0.14828663
108	0x3e9dc066	0.3081085
109	0x3ea8d09a	0.3297165
110	0xbe4b9de8	-0.19884455
111	0xbda4cec2	-0.080472484
112	0xbe8474c5	-0.25870338
113	0x3e1e59f1	0.15463997
114	0xbe8027ab	-0.25030264
115	0xbea83084	-0.32849514
116	0xbe8d0c00	-0.27548218
117	0xbe892c22	-0.26791483
118	0x3e802dae	0.2503485
119	0xbe119ed6	-0.14220747
120	0x3e4c7cce	0.19969484
121	0xbdd4ba8b	-0.10387143
122	0xbdcea1ff	-0.10089492
123	0xbdc5624f	-0.096378915
124	0xbe8f7d64	-0.28025353
125	0x3ddaa768	0.106764615
126	0xbdf941bf	-0.12170743
127	0x3dc429c2	0.09578277
128	0xbe9e157e	-0.30875772
129	0x3d9e5179	0.077303834
130	0x3e8c6172	0.27418095
131	0xbdf00b95	-0.11720959
132	0x3da90dec	0.082546085
133	0xbeaf09ad	-0.3418707
134	0xbe12ba29	-0.14328827
135	0x3e99e431	0.3005691
136	0x3e013f0e	0.1262171
137	0x3dd9e6c9	0.10639722
138	0x3e23d8a4	0.1600061
139	0xbd8cc4e9	-0.06873495
140	0xbe2be502	-0.16786578
141	0x3eaa0e66	0.3321411
142	0xbdf161fb	-0.117862664
143	0xbd1c83b5	-0.038211543

exp_avg f4 [16, 16, 5, 5]
0	0xb474c2d1	-2.2795145e-07
1	0xb4722509	-2.255148e-07
2	0x3265f214	1.33845965e-08
3	0x33ea9b7f	1.0924759e-07
4	0xb3192602	-3.5657656e-08
5	0xb46c9705	-2.2034153e-07
6	0xb462f103	-2.113557e-07
7	0xb33fa06f	-4.4616566e-08
8	0x32594515	1.264677e-08
9	0xb3a72c50	-7.784604e-08
10	0xb425d0d7	-1.5442798e-07
11	0xb300b43b	-2.996624e-08
12	0xb35546da	-4.9657366e-08
13	0xb433e5e2	-1.6754305e-07
14	0xb3abb189	-7.9951015e-08
15	0xb4191e6f	-1.4260307e-07
16	0xb09c3104	-1.1364425e-09
17	0xb384e3c4	-6.188159e-08
18	0xb485eac8	-2.4944006e-07
19	0xb392e16d	-6.8396595e-08
20	0xb4079fe4	-1.2631023e-07
21	0xb3615621	-5.246523e-08
22	0xb396932c	-7.01169e-08
23	0xb434067f	-1.676617e-07
24	0xb3c6a01b	-9.2492165e-08
25	0x32d08cd6	2.4278432e-08
26	0x3472e952	2.2622888e-07
27	0x3445bcda	1.8415759e-07
28	0x322b9cfb	9.989203e-09
29	0xb32c36a7	-4.0096577e-08
30	0x344f643c	1.9314842e-07
31	0x349f9d26	2.9730398e-07
32	0x343dbbb6	1.7670286e-07
33	0x32ed25e8	2.7607669e-08
34	0xb39e5225	-7.37239e-08
35	0x347d530a	2.359267e-07
36	0x34137b38	1.3735269e-07
37	0xb34bc7cb	-4.744633e-08
38	0xb15092f5	-3.035152e-09
39	0x3084900c	9.645205e-10
40	0x339e597a	7.373724e-08
41	0xb3674d6a	-5.3854286e-08
42	0xb395b249	-6.970783e-08
43	0x33637675	5.2960292e-08
44	0x3402bbb2	1.2175477e-07
45	0x340d2a9f	1.3147154e-07
46	0x3404315c	1.2311415e-07
47	0x340e3a55	1.3246002e-07
48	0x342de920	1.6196691e-07
49	0x34274e7b	1.5581638e-07
50	0xb455c41a	-1.9908512e-07
51	0x33efa59f	1.1159431e-07
52	0x341fc337	1.4879048e-07
53	0xb3864662	-6.252664e-08
54	0xb39f5d1a	-7.4209495e-08
55	0xb2e12007	-2.6208012e-08
56	0x3403e561	1.2283773e-07
57	0xb2679ccb	-1.348162e-08
58	0xb4190a90	-1.4253078e-07
59	0xb38aa145	-6.4554605e-08
60	0x34048c73	1.2344553e-07
61	0x3322b30c	3.7881406e-08
62	0xb43cb406	-1.7574357e-07
63	0xb3eeb1e0	-1.1115094e-07
64	0xb3e795b6	-1.0784008e-07
65	0x32e3989f	2.6495682e-08
66	0xb380ef13	-6.003952e-08
67	0xb4154381	-1.3901264e-07
68	0xb283f739	-1.5362831e-08
69	0xb3477f35	-4.6448992e-08
70	0xb374a710	-5.696262e-08
71	0xb315b8f3	-3.4859976e-08
72	0xb38c0995	-6.521001e-08
73	0xb37f9529	-5.9507475e-08
74	0x32cddcd0	2.3965555e-08
75	0x341e862a	1.4763705e-07
76	0xb393e335	-6.8865496e-08
77	0xb4076e5b	-1.2613002e-07
78	0x332ad1fb	3.9772186e-08
79	0x3425b3dd	1.5432256e-07
80	0xb39ee244	-7.398606e-08
81	0xb4a62974	-3.095007e-07
82	0xb3942cb5	-6.899919e-08
83	0x341903da	1.4250637e-07
84	0x3451eaa0	1.9549998e-07
85	0xb4802670	-2.3869825e-07
86	0xb49d7aa4	-2.9332762e-07
87	0xb2c86d9c	-2.3332909e-08
88	0x3346ba14	4.6269705e-08
89	0xb37a937e	-5.8341804e-08
90	0xb3e15a3b	-1.0493792e-07
91	0xb34187e2	-4.50599e-08
92	0x342bd12f	1.6001717e-07
93	0x33eef1c0	1.1126713e-07
94	0xb3f5419f	-1.1420638e-07
95	0xb30a5662	-3.2209194e-08
96	0xb3a28887	-7.568547e-08
97	0x32b3d652	2.0935804e-08
98	0x329ab038	1.8008095e-08
99	0xb39273ed	-6.8197416e-08
100	0x33958a26	6.963482e-08
101	0xb4349a9a	-1.682005e-07
102	0xb4fe3383	-4.7348666e-07
103	0xb4b63734	-3.3940307e-07
104	0xb4750868	-2.2820461e-07
105	0xb1b0db4b	-5.147205e-09
106	0xb403469b	-1.2226012e-07
107	0xb48d4443	-2.6312964e-07
108	0xb4422a12	-1.8082963e-07
109	0xb4ba0eeb	-3.4656054e-07
110	0xb382df04	-6.094163e-08
111	0xb41a3aa6	-1.4363704e-07
112	0xb3725472	-5.642182e-08
113	0x33ace0d6	8.0502716e-08
114	0xb418f70e	-1.4245981e-07
115	0xb40903c2	-1.2760486e-07
116	0xb496ba36	-2.8075164e-07
117	0xb463b527	-2.1206925e-07
118	0xb2bf414b	-2.2265018e-08
119	0xb42333d9	-1.519942e-07
120	0xb2e4e26c	-2.6645658e-08
121	0xb4143429	-1.380255e-07
122	0xb40fb5fb	-1.3384117e-07
123	0x32e746e6	2.692418e-08
124	0xb423a2c0	-1.5239766e-07
125	0x34513276	1.9483e-07
126	0x348faccd	2.6761555e-07
127	0x3493aae0	2.7505212e-07
128	0x34328e19	1.6629237e-07
129	0x341829c2	1.4171295e-07
130	0x34a86cc3	3.1371573e-07
131	0x34b3aef5	3.3468646e-07
132	0x34822938	2.4244378e-07
133	0x344cbeb4	1.9068358e-07
134	0x34628346	2.1095647e-07
135	0x34bc3c79	3.5061728e-07
136	0x3498f30d	2.848905e-07
137	0x3422c264	1.5158145e-07
138	0x341e9d2b	1.4772074e-07
139	0x34417f31	1.8020798e-07
140	0x349df609	2.9422543e-07
141	0x341fc875	1.4880955e-07
142	0x341553a6	1.3907137e-07
143	0x3497a1f7	2.8243787e-07
144	0x348a9ff0	2.5820873e-07
145	0x347231e2	2.2556154e-07
146	0x34503c0a	1.9393352e-07
147	0x3461671a	2.0992266e-07
148	0x3499ee4e	2.867186e-07
149	0x348fc25c	2.677724e-07
150	0x35230969	6.0735925e-07
151	0x3509788d	5.12119e-07
152	0x34413662	1.799431e-07
153	0x3412dc7c	1.3677521e-07
154	0x34a2feb5	3.0360175e-07
155	0x3533a67a	6.692495e-07
156	0x34e1b57a	4.2041557e-07
157	0x33cf63fb	9.657375e-08
158	0x345e672a	2.0712892e-07
159	0x34e06e01	4.180329e-07
160	0x349800c7	2.8312772e-07
161	0x34445368	1.8284265e-07
162	0x3456f579	2.0019606e-07
163	0x349f08e9	2.962254e-07
164	0x34f1d066	4.5041378e-07
165	0x3484d3f4	2.4741132e-07
166	0x34b3bd6f	3.347918e-07
167	0x34dd8c56	4.1266566e-07
168	0x34c7b24e	3.7196372e-07
169	0x34e320ff	4.2306053e-07
170	0x349988d5	2.859803e-07
171	0x34b18e1d	3.307222e-07
172	0x349a8b4d	2.878609e-07
173	0x34897d04	2.56092e-07
174	0x347805f4	2.3098966e-07
175	0x3423a04b	1.5238872e-07
176	0x344b9722	1.896083e-07
177	0xb3b68e73	-8.500947e-08
178	0xb4446efe	-1.8294301e-07
179	0xb418b982	-1.422359e-07
180	0x34719a28	2.2500956e-07
181	0x348aec66	2.5876506e-07
182	0x334594aa	4.6002846e-08
183	0xb3686c5e	-5.411527e-08
184	0xb45f871b	-2.0817644e-07
185	0x344f0f77	1.9284003e-07
186	0x338dbab7	6.5997874e-08
187	0xb2ae2b3c	-2.0275927e-08
188	0x33f2b612	1.13021215e-07
189	0x31cce274	5.962926e-09
190	0x3349d113	4.698911e-08
191	0xb4002a8e	-1.193641e-07
192	0xb4034c20	-1.222802e-07
193	0x338c77fb	6.541082e-08
194	0x339a9434	7.198142e-08
195	0x341f7d1a	1.485354e-07
196	0x33ae5c5a	8.119305e-08
197	0x338043ac	5.972774e-08
198	0x342f80d0	1.6345007e-07
199	0x33a9a3ca	7.899469e-08
200	0x31df4d06	6.4989107e-09
201	0xb4012fa8	-1.2031398e-07
202	0xb3924c54	-6.812539e-08
203	0x32c89a9d	2.3353374e-08
204	0xb36d1a86	-5.5204985e-08
205	0xb411d1f6	-1.358056e-07
206	0xb41ee617	-1.4798603e-07
207	0xb399e91d	-7.167021e-08
208	0x3012c797	5.3398125e-10
209	0xb3a12eba	-7.505646e-08
210	0xb499383f	-2.8539395e-07
211	0xb4903a32	-2.6864433e-07
212	0xb4525d93	-1.9591816e-07
213	0xb46bd663	-2.1964074e-07
214	0xb4588bdd	-2.016745e-07
215	0xb447fc5f	-1.8625131e-07
216	0xb43ce69f	-1.7592764e-07
217	0xb41a82b2	-1.4389914e-07
218	0xb41e685a	-1.475286e-07
219	0xb451c136	-1.9534932e-07
220	0xb3aa3c5f	-7.927223e-08
221	0xb3c6e089	-9.260936e-08
222	0xb3bac8d7	-8.6978325e-08
223	0xb38f0088	-6.659053e-08
224	0xb443540b	-1.8191365e-07
225	0xb4b82cc8	-3.4305253e-07
226	0xb501b3fb	-4.831815e-07
227	0xb5154de4	-5.562017e-07
228	0xb4bec45a	-3.5533122e-07
229	0xb4aad136	-3.1817189e-07
230	0xb4d6c53c	-4.0004113e-07
231	0xb5107134	-5.380891e-07
232	0xb512782a	-5.45641e-07
233	0xb4ac2895	-3.2067024e-07
234	0xb4ed677c	-4.4219985e-07
235	0xb49438fa	-2.7608604e-07
236	0xb4a73f09	-3.1152038e-07
237	0xb49a6ba4	-2.8763054e-07
238	0xb4258c6e	-1.541791e-07
239	0xb4cfcf7e	-3.8707725e-07
240	0xb4a39219	-3.0467416e-07
241	0xb4c2cde6	-3.6285127e-07
242	0xb4cbacd8	-3.7937457e-07
243	0xb48ea2f4	-2.6568125e-07
244	0xb4dc31a0	-4.10143e-07
245	0xb4a8b78f	-3.1425995e-07
246	0xb4c41bb9	-3.6528016e-07
247	0xb4da1e2f	-4.0627626e-07
248	0xb49fda05	-2.9774688e-07
249	0xb4c02e4a	-3.5796467e-07
250	0x34d2b98c	3.925055e-07
251	0x350b9eab	5.201243e-07
252	0x34e9e7e8	4.3568366e-07
253	0x347513d2	2.2824614e-07
254	0x3453c46a	1.9722361e-07
255	0x34eb2739	4.38007e-07

exp_avg_sq f4 [16, 16, 5, 5]
0	0x2e18069d	3.4566672e-11
1	0x2e435240	4.441092e-11
2	0x2ee37569	1.0343621e-10
3	0x2e528fc8	4.7876175e-11
4	0x2ee6fcb7	1.050408e-10
5	0x2df2f183	2.7619467e-11
6	0x2e969e6a	6.84935e-11
7	0x2e7e735d	5.7855377e-11
8	0x2f237fe4	1.48702e-10
9	0x2e267ab4	3.7853012e-11
10	0x2e79796e	5.6723896e-11
11	0x2e8a3d7b	6.2864346e-11
12	0x2f3afe60	1.7006974e-10
13	0x2e2bdedf	3.9078848e-11
14	0x2f24c425	1.4985398e-10
15	0x2e210ca9	3.6618406e-11
16	0x2ee475b3	1.0389147e-10
17	0x2e601282	5.094814e-11
18	0x2f2ffa59	1.6005099e-10
19	0x2e060507	3.0472538e-11
20	0x2e9755d2	6.88193e-11
21	0x2e509f50	4.7435222e-11
22	0x2f219bda	1.4698234e-10
23	0x2e1dded1	3.5895568e-11
24	0x2f06de19	1.2266134e-10
25	0x2f7024f0	2.1840996e-10
26	0x2f5f7332	2.0322657e-10
27	0x2f9f1403	2.893615e-10
28	0x2f7b4356	2.285224e-10
29	0x2f29fa19	1.5459313e-10
30	0x2f0ab83b	1.2616479e-10
31	0x2fd50ffa	3.8755826e-10
32	0x2f5b3170	1.9935498e-10
33	0x2f841b36	2.4029995e-10
34	0x2f7b67cf	2.2865197e-10
35	0x2fc35e81	3.5537442e-10
36	0x2f45139b	1.7924011e-10
37	0x2fbe4d61	3.461578e-10
38	0x2f635ee8	2.0679247e-10
39	0x2f516098	1.9042756e-10
40	0x2eedafc7	1.08087365e-10
41	0x2fd54b5b	3.8798018e-10
42	0x2f378c94	1.6693696e-10
43	0x2f9cbbb9	2.850962e-10
44	0x2f2bd801	1.56291e-10
45	0x2faf6efa	3.1911168e-10
46	0x2f0f0236	1.300656e-10
47	0x2fb34f7d	3.261639e-10
48	0x2f0ec63e	1.2985255e-10
49	0x2f22d6db	1.4810146e-10
50	0x2f104940	1.3122747e-10
51	0x2f85aef4	2.431687e-10
52	0x2f9d8c32	2.8657748e-10
53	0x2f7e59e7	2.3133105e-10
54	0x2f7e694c	2.3138574e-10
55	0x2f311781	1.6106406e-10
56	0x2f942d77	2.6953348e-10
57	0x2f95b077	2.7228328e-10
58	0x2fb5a222	3.303891e-10
59	0x2f649b28	2.0791602e-10
60	0x2f696a26	2.1228938e-10
61	0x2f9afc4b	2.8191702e-10
62	0x2fd891fd	3.9393902e-10
63	0x2f77aaa7	2.2525147e-10
64	0x2f9cd5d7	2.8528177e-10
65	0x2f34db9c	1.6448926e-10
66	0x2fad964a	3.1575303e-10
67	0x2f819834	2.357311e-10
68	0x2fcfc3b0	3.7792125e-10
69	0x2f12582d	1.3309949e-10
70	0x2f7ca5f6	2.2978228e-10
71	0x2f5e7bb1	2.0234726e-10
72	0x2fd29073	3.8301415e-10
73	0x2f11fdbc	1.3277818e-10
74	0x2f80fdb7	2.346334e-10
75	0x2eaa4245	7.742477e-11
76	0x2e627959	5.149423e-11
77	0x2e59df73	4.953855e-11
78	0x2e7b0cd1	5.7082176e-11
79	0x2dcebf32	2.3504396e-11
80	0x2e7f7b1c	5.808963e-11
81	0x2e9f89c7	7.254957e-11
82	0x2e604f39	5.1002067e-11
83	0x2e2b805c	3.8994905e-11
84	0x2e96287d	6.8284024e-11
85	0x2edb525c	9.973597e-11
86	0x2e61b855	5.1322797e-11
87	0x2e83d4f2	5.995017e-11
88	0x2e7e9228	5.7882726e-11
89	0x2e3a7d0a	4.240256e-11
90	0x2e1ad458	3.5204145e-11
91	0x2e8e11c0	6.4605654e-11
92	0x2e44f5fa	4.478371e-11
93	0x2e724ffd	5.5095473e-11
94	0x2e734c47	5.531955e-11
95	0x2e824aeb	5.925024e-11
96	0x2e879004	6.1646716e-11
97	0x2e419196	4.4012426e-11
98	0x2ea002e2	7.27647e-11
99	0x2db19322	2.018791e-11
100	0x2df8f331	2.8302334e-11
101	0x2e33da4b	4.089377e-11
102	0x2e01ea62	2.9539378e-11
103	0x2e5bb1f3	4.9952886e-11
104	0x2e138c40	3.3548497e-11
105	0x2e4e3fbd	4.6895588e-11
106	0x2e2fff92	4.0017385e-11
107	0x2e138043	3.353785e-11
108	0x2dea1218	2.6610755e-11
109	0x2e49577d	4.5779814e-11
110	0x2e8cb640	6.398837e-11
111	0x2e147d56	3.3762625e-11
112	0x2e2e9e1a	3.9703442e-11
113	0x2e3ab012	4.2447885e-11
114	0x2e4fb86b	4.7230147e-11
115	0x2de1aff3	2.5657676e-11
116	0x2ded8d2f	2.7006479e-11
117	0x2dfb9978	2.860355e-11
118	0x2e4d8991	4.6733787e-11
119	0x2df55d6b	2.7894761e-11
120	0x2e200900	3.638778e-11
121	0x2e5028b2	4.732987e-11
122	0x2e0217ca	2.9579707e-11
123	0x2e13f64f	3.3642696e-11
124	0x2ddb7be6	2.495244e-11
125	0x2eff3107	1.16047665e-10
126	0x2f81a535	2.358235e-10
127	0x2e7ccb64	5.7478813e-11
128	0x2fe092f4	4.084978e-10
129	0x2ec187a3	8.800718e-11
130	0x2f4e0eb3	1.8740813e-10
131	0x2edb5476	9.97397e-11
132	0x2fe87c00	4.2288661e-10
133	0x2e9a0c8e	7.0053394e-11
134	0x2fba6b02	3.3909237e-10
135	0x2e824f9a	5.9258556e-11
136	0x2fbcd025	3.4344896e-10
137	0x2ed51970	9.690637e-11
138	0x2fe893ca	4.2305565e-10
139	0x2e8c2e2d	6.3746654e-11
140	0x2f9dd59c	2.8709912e-10
141	0x2ea7e478	7.634865e-11
142	0x2fe96e49	4.2460815e-10
143	0x2eaa57c0	7.7462925e-11
144	0x2fda305a	3.9688325e-10
145	0x2ea86436	7.6575565e-11
146	0x2fb31707	3.2576272e-10
147	0x2f0182e9	1.177899e-10
148	0x2fb22c62	3.2409547e-10
149	0x2ecc994c	9.304077e-11
150	0x2f27f61d	1.5275999e-10
151	0x30903fc9	1.0495508e-09
152	0x2f8c28b2	2.5494767e-10
153	0x3072e00f	8.8357494e-10
154	0x2fb99c3f	3.3762323e-10
155	0x30644ab3	8.305207e-10
156	0x2f646cea	2.0775173e-10
157	0x309626ac	1.0924928e-09
158	0x2fa9235d	3.0766048e-10
159	0x3050d0fb	7.596694e-10
160	0x2f79660d	2.2682674e-10
161	0x3092937d	1.0664817e-09
162	0x2f84a8f4	2.4130709e-10
163	0x30854dcc	9.699135e-10
164	0x2fafd0e1	3.1980732e-10
165	0x30697916	8.493698e-10
166	0x2f831075	2.3840455e-10
167	0x30898512	1.0005883e-09
168	0x2f799d9f	2.2702416e-10
169	0x3033e0f8	6.543952e-10
170	0x2f23904b	1.4876027e-10
171	0x307b0f84	9.1335317e-10
172	0x2f4f22ad	1.883886e-10
173	0x30522f24	7.6464546e-10
174	0x2f47e64e	1.8180765e-10
175	0x2f5f6402	2.0317262e-10
176	0x2d61e78d	1.2841184e-11
177	0x2f91f066	2.654616e-10
178	0x2d8872e9	1.551244e-11
179	0x2f27b607	1.525323e-10
180	0x2c907e92	4.1067783e-12
181	0x2faffd55	3.2012318e-10
182	0x2d0f5f95	8.149832e-12
183	0x2f6f4d9c	2.1764496e-10
184	0x2d95966f	1.7006145e-11
185	0x2fb6296d	3.3135042e-10
186	0x2e08e286	3.1124013e-11
187	0x2f9f99ba	2.903116e-10
188	0x2d3222e6	1.0125878e-11
189	0x2f3e6a99	1.731827e-10
190	0x2d1c2cbe	8.877508e-12
191	0x2fa97102	3.0821218e-10
192	0x2d7fb442	1.4535097e-11
193	0x2f5ebd1a	2.0257965e-10
194	0x2d89d355	1.5668947e-11
195	0x2f898ed2	2.5021635e-10
196	0x2d821557	1.4788766e-11
197	0x2f89fd14	2.5099978e-10
198	0x2c86bfd7	3.8298076e-12
199	0x2ef5a38a	1.11703605e-10
200	0x2e6f7dfd	5.445421e-11
201	0x2e0b8093	3.1719138e-11
202	0x2f4dd418	1.8719992e-10
203	0x2df1f44e	2.7507021e-11
204	0x2f008e9c	1.1692197e-10
205	0x2e120449	3.3200363e-11
206	0x2f293b15	1.539145e-10
207	0x2e1ebc9a	3.6092553e-11
208	0x2f1fbd7b	1.4528283e-10
209	0x2e025a3b	2.963872e-11
210	0x2ef0e2b1	1.0954205e-10
211	0x2e20e15a	3.657994e-11
212	0x2f2ca254	1.570098e-10
213	0x2df5907a	2.7917436e-11
214	0x2f0fc671	1.3076275e-10
215	0x2de2aed2	2.5770861e-11
216	0x2f1add1c	1.4084772e-10
217	0x2de858a8	2.6414718e-11
218	0x2f274b73	1.5215366e-10
219	0x2e0ddacd	3.2254022e-11
220	0x2ec5fa15	9.002946e-11
221	0x2dbab4df	2.1226075e-11
222	0x2f2db70f	1.5799294e-10
223	0x2e062f88	3.051029e-11
224	0x2ea9ec21	7.727175e-11
225	0x2ed9ab87	9.898487e-11
226	0x2ed86566	9.840555e-11
227	0x2f311b0d	1.6107667e-10
228	0x2edf8c83	1.0165826e-10
229	0x2f0851bd	1.2398167e-10
230	0x2effaa15	1.162627e-10
231	0x2ef8b1af	1.1309297e-10
232	0x2eec9821	1.0759061e-10
233	0x2f23213f	1.4836575e-10
234	0x2f02d83b	1.1900252e-10
235	0x2efce15b	1.14996644e-10
236	0x2eec4466	1.07441875e-10
237	0x2f012e01	1.1748826e-10
238	0x2ee0089b	1.0187869e-10
239	0x2f10d13a	1.3171056e-10
240	0x2ebef66b	8.683972e-11
241	0x2ee16ebe	1.0251487e-10
242	0x2ef1658d	1.097745e-10
243	0x2f085900	1.2400747e-10
244	0x2ed599e6	9.7134564e-11
245	0x2ee4cb08	1.0404305e-10
246	0x2ec431ef	8.921918e-11
247	0x2eeaa1ff	1.0669864e-10
248	0x2ed4900c	9.666232e-11
249	0x2ef6bd7d	1.1220445e-10
250	0x2efe19d9	1.1555174e-10
251	0x2f939e53	2.685164e-10
252	0x2f00be0e	1.1709053e-10
253	0x2fdbf81e	4.0012166e-10
254	0x2f012568	1.1745771e-10
255	0x2f8011e9	2.329579e-10

exp_avg f4 [16]
0	0x34c7fc67	3.7250285e-07
1	0x350f7699	5.3444234e-07
2	0x3481965b	2.413752e-07
3	0x33726304	5.643507e-08
4	0x35e25f71	1.6866089e-06
5	0xb2be3b2a	-2.2145816e-08
6	0x3491d8c8	2.7166084e-07
7	0x343fb504	1.7854114e-07
8	0xb5552141	-7.9397074e-07
9	0x30a882d9	1.2260798e-09
10	0xb3971f93	-7.037229e-08
11	0x33915880	6.768187e-08
12	0xb2f3a5e0	-2.8364354e-08
13	0xb31e6230	-3.6876543e-08
14	0xb5e58202	-1.7099667e-06
15	0xb39d2458	-7.317493e-08

exp_avg_sq f4 [16]
0	0x3020f213	5.855167e-10
1	0x2fa7cd98	3.0523206e-10
2	0x306ddb9f	8.65322e-10
3	0x2e2145fa	3.6669313e-11
4	0x30ba5f22	1.356032e-09
5	0x3034871a	6.567561e-10
6	0x2fdca642	4.01359e-10
7	0x306e96a4	8.679797e-10
8	0x2fb50370	3.292615e-10
9	0x2d4e9b8f	1.1744285e-11
10	0x2f85621b	2.4262267e-10
11	0x301d7015	5.7275545e-10
12	0x2e051e57	3.0267646e-11
13	0x30a750b1	1.2173783e-09
14	0x2ff778ae	4.5014786e-10
15	0x2ff3ec00	4.436913e-10
